digraph {
	graph [size="12,12"]
	node [align=left fontsize=12 height=0.2 ranksep=0.1 shape=box style=filled]
	backbone_b [label="Sequential(
  (0): Conv(
    (conv): Conv2d(3, 96, kernel_size=(3, 3), stride=(2, 2), padding=(1, 1), bias=False)
    (bn): BatchNorm2d(96, eps=0.001, momentum=0.03, affine=True, track_running_stats=True)
    (act): SiLU(inplace=True)
  )
  (1): Conv(
    (conv): Conv2d(96, 192, kernel_size=(3, 3), stride=(2, 2), padding=(1, 1), bias=False)
    (bn): BatchNorm2d(192, eps=0.001, momentum=0.03, affine=True, track_running_stats=True)
    (act): SiLU(inplace=True)
  )
  (2): C3k2(
    (cv1): Conv(
      (conv): Conv2d(192, 192, kernel_size=(1, 1), stride=(1, 1), bias=False)
      (bn): BatchNorm2d(192, eps=0.001, momentum=0.03, affine=True, track_running_stats=True)
      (act): SiLU(inplace=True)
    )
    (cv2): Conv(
      (conv): Conv2d(384, 384, kernel_size=(1, 1), stride=(1, 1), bias=False)
      (bn): BatchNorm2d(384, eps=0.001, momentum=0.03, affine=True, track_running_stats=True)
      (act): SiLU(inplace=True)
    )
    (m): ModuleList(
      (0-1): 2 x C3k(
        (cv1): Conv(
          (conv): Conv2d(96, 48, kernel_size=(1, 1), stride=(1, 1), bias=False)
          (bn): BatchNorm2d(48, eps=0.001, momentum=0.03, affine=True, track_running_stats=True)
          (act): SiLU(inplace=True)
        )
        (cv2): Conv(
          (conv): Conv2d(96, 48, kernel_size=(1, 1), stride=(1, 1), bias=False)
          (bn): BatchNorm2d(48, eps=0.001, momentum=0.03, affine=True, track_running_stats=True)
          (act): SiLU(inplace=True)
        )
        (cv3): Conv(
          (conv): Conv2d(96, 96, kernel_size=(1, 1), stride=(1, 1), bias=False)
          (bn): BatchNorm2d(96, eps=0.001, momentum=0.03, affine=True, track_running_stats=True)
          (act): SiLU(inplace=True)
        )
        (m): Sequential(
          (0): Bottleneck(
            (cv1): Conv(
              (conv): Conv2d(48, 48, kernel_size=(3, 3), stride=(1, 1), padding=(1, 1), bias=False)
              (bn): BatchNorm2d(48, eps=0.001, momentum=0.03, affine=True, track_running_stats=True)
              (act): SiLU(inplace=True)
            )
            (cv2): Conv(
              (conv): Conv2d(48, 48, kernel_size=(3, 3), stride=(1, 1), padding=(1, 1), bias=False)
              (bn): BatchNorm2d(48, eps=0.001, momentum=0.03, affine=True, track_running_stats=True)
              (act): SiLU(inplace=True)
            )
          )
          (1): Bottleneck(
            (cv1): Conv(
              (conv): Conv2d(48, 48, kernel_size=(3, 3), stride=(1, 1), padding=(1, 1), bias=False)
              (bn): BatchNorm2d(48, eps=0.001, momentum=0.03, affine=True, track_running_stats=True)
              (act): SiLU(inplace=True)
            )
            (cv2): Conv(
              (conv): Conv2d(48, 48, kernel_size=(3, 3), stride=(1, 1), padding=(1, 1), bias=False)
              (bn): BatchNorm2d(48, eps=0.001, momentum=0.03, affine=True, track_running_stats=True)
              (act): SiLU(inplace=True)
            )
          )
        )
      )
    )
  )
  (3): Conv(
    (conv): Conv2d(384, 384, kernel_size=(3, 3), stride=(2, 2), padding=(1, 1), bias=False)
    (bn): BatchNorm2d(384, eps=0.001, momentum=0.03, affine=True, track_running_stats=True)
    (act): SiLU(inplace=True)
  )
  (4): C3k2(
    (cv1): Conv(
      (conv): Conv2d(384, 384, kernel_size=(1, 1), stride=(1, 1), bias=False)
      (bn): BatchNorm2d(384, eps=0.001, momentum=0.03, affine=True, track_running_stats=True)
      (act): SiLU(inplace=True)
    )
    (cv2): Conv(
      (conv): Conv2d(768, 768, kernel_size=(1, 1), stride=(1, 1), bias=False)
      (bn): BatchNorm2d(768, eps=0.001, momentum=0.03, affine=True, track_running_stats=True)
      (act): SiLU(inplace=True)
    )
    (m): ModuleList(
      (0-1): 2 x C3k(
        (cv1): Conv(
          (conv): Conv2d(192, 96, kernel_size=(1, 1), stride=(1, 1), bias=False)
          (bn): BatchNorm2d(96, eps=0.001, momentum=0.03, affine=True, track_running_stats=True)
          (act): SiLU(inplace=True)
        )
        (cv2): Conv(
          (conv): Conv2d(192, 96, kernel_size=(1, 1), stride=(1, 1), bias=False)
          (bn): BatchNorm2d(96, eps=0.001, momentum=0.03, affine=True, track_running_stats=True)
          (act): SiLU(inplace=True)
        )
        (cv3): Conv(
          (conv): Conv2d(192, 192, kernel_size=(1, 1), stride=(1, 1), bias=False)
          (bn): BatchNorm2d(192, eps=0.001, momentum=0.03, affine=True, track_running_stats=True)
          (act): SiLU(inplace=True)
        )
        (m): Sequential(
          (0): Bottleneck(
            (cv1): Conv(
              (conv): Conv2d(96, 96, kernel_size=(3, 3), stride=(1, 1), padding=(1, 1), bias=False)
              (bn): BatchNorm2d(96, eps=0.001, momentum=0.03, affine=True, track_running_stats=True)
              (act): SiLU(inplace=True)
            )
            (cv2): Conv(
              (conv): Conv2d(96, 96, kernel_size=(3, 3), stride=(1, 1), padding=(1, 1), bias=False)
              (bn): BatchNorm2d(96, eps=0.001, momentum=0.03, affine=True, track_running_stats=True)
              (act): SiLU(inplace=True)
            )
          )
          (1): Bottleneck(
            (cv1): Conv(
              (conv): Conv2d(96, 96, kernel_size=(3, 3), stride=(1, 1), padding=(1, 1), bias=False)
              (bn): BatchNorm2d(96, eps=0.001, momentum=0.03, affine=True, track_running_stats=True)
              (act): SiLU(inplace=True)
            )
            (cv2): Conv(
              (conv): Conv2d(96, 96, kernel_size=(3, 3), stride=(1, 1), padding=(1, 1), bias=False)
              (bn): BatchNorm2d(96, eps=0.001, momentum=0.03, affine=True, track_running_stats=True)
              (act): SiLU(inplace=True)
            )
          )
        )
      )
    )
  )
  (5): Conv(
    (conv): Conv2d(768, 768, kernel_size=(3, 3), stride=(2, 2), padding=(1, 1), bias=False)
    (bn): BatchNorm2d(768, eps=0.001, momentum=0.03, affine=True, track_running_stats=True)
    (act): SiLU(inplace=True)
  )
  (6): C3k2(
    (cv1): Conv(
      (conv): Conv2d(768, 768, kernel_size=(1, 1), stride=(1, 1), bias=False)
      (bn): BatchNorm2d(768, eps=0.001, momentum=0.03, affine=True, track_running_stats=True)
      (act): SiLU(inplace=True)
    )
    (cv2): Conv(
      (conv): Conv2d(1536, 768, kernel_size=(1, 1), stride=(1, 1), bias=False)
      (bn): BatchNorm2d(768, eps=0.001, momentum=0.03, affine=True, track_running_stats=True)
      (act): SiLU(inplace=True)
    )
    (m): ModuleList(
      (0-1): 2 x C3k(
        (cv1): Conv(
          (conv): Conv2d(384, 192, kernel_size=(1, 1), stride=(1, 1), bias=False)
          (bn): BatchNorm2d(192, eps=0.001, momentum=0.03, affine=True, track_running_stats=True)
          (act): SiLU(inplace=True)
        )
        (cv2): Conv(
          (conv): Conv2d(384, 192, kernel_size=(1, 1), stride=(1, 1), bias=False)
          (bn): BatchNorm2d(192, eps=0.001, momentum=0.03, affine=True, track_running_stats=True)
          (act): SiLU(inplace=True)
        )
        (cv3): Conv(
          (conv): Conv2d(384, 384, kernel_size=(1, 1), stride=(1, 1), bias=False)
          (bn): BatchNorm2d(384, eps=0.001, momentum=0.03, affine=True, track_running_stats=True)
          (act): SiLU(inplace=True)
        )
        (m): Sequential(
          (0): Bottleneck(
            (cv1): Conv(
              (conv): Conv2d(192, 192, kernel_size=(3, 3), stride=(1, 1), padding=(1, 1), bias=False)
              (bn): BatchNorm2d(192, eps=0.001, momentum=0.03, affine=True, track_running_stats=True)
              (act): SiLU(inplace=True)
            )
            (cv2): Conv(
              (conv): Conv2d(192, 192, kernel_size=(3, 3), stride=(1, 1), padding=(1, 1), bias=False)
              (bn): BatchNorm2d(192, eps=0.001, momentum=0.03, affine=True, track_running_stats=True)
              (act): SiLU(inplace=True)
            )
          )
          (1): Bottleneck(
            (cv1): Conv(
              (conv): Conv2d(192, 192, kernel_size=(3, 3), stride=(1, 1), padding=(1, 1), bias=False)
              (bn): BatchNorm2d(192, eps=0.001, momentum=0.03, affine=True, track_running_stats=True)
              (act): SiLU(inplace=True)
            )
            (cv2): Conv(
              (conv): Conv2d(192, 192, kernel_size=(3, 3), stride=(1, 1), padding=(1, 1), bias=False)
              (bn): BatchNorm2d(192, eps=0.001, momentum=0.03, affine=True, track_running_stats=True)
              (act): SiLU(inplace=True)
            )
          )
        )
      )
    )
  )
  (7): Conv(
    (conv): Conv2d(768, 768, kernel_size=(3, 3), stride=(2, 2), padding=(1, 1), bias=False)
    (bn): BatchNorm2d(768, eps=0.001, momentum=0.03, affine=True, track_running_stats=True)
    (act): SiLU(inplace=True)
  )
  (8): C3k2(
    (cv1): Conv(
      (conv): Conv2d(768, 768, kernel_size=(1, 1), stride=(1, 1), bias=False)
      (bn): BatchNorm2d(768, eps=0.001, momentum=0.03, affine=True, track_running_stats=True)
      (act): SiLU(inplace=True)
    )
    (cv2): Conv(
      (conv): Conv2d(1536, 768, kernel_size=(1, 1), stride=(1, 1), bias=False)
      (bn): BatchNorm2d(768, eps=0.001, momentum=0.03, affine=True, track_running_stats=True)
      (act): SiLU(inplace=True)
    )
    (m): ModuleList(
      (0-1): 2 x C3k(
        (cv1): Conv(
          (conv): Conv2d(384, 192, kernel_size=(1, 1), stride=(1, 1), bias=False)
          (bn): BatchNorm2d(192, eps=0.001, momentum=0.03, affine=True, track_running_stats=True)
          (act): SiLU(inplace=True)
        )
        (cv2): Conv(
          (conv): Conv2d(384, 192, kernel_size=(1, 1), stride=(1, 1), bias=False)
          (bn): BatchNorm2d(192, eps=0.001, momentum=0.03, affine=True, track_running_stats=True)
          (act): SiLU(inplace=True)
        )
        (cv3): Conv(
          (conv): Conv2d(384, 384, kernel_size=(1, 1), stride=(1, 1), bias=False)
          (bn): BatchNorm2d(384, eps=0.001, momentum=0.03, affine=True, track_running_stats=True)
          (act): SiLU(inplace=True)
        )
        (m): Sequential(
          (0): Bottleneck(
            (cv1): Conv(
              (conv): Conv2d(192, 192, kernel_size=(3, 3), stride=(1, 1), padding=(1, 1), bias=False)
              (bn): BatchNorm2d(192, eps=0.001, momentum=0.03, affine=True, track_running_stats=True)
              (act): SiLU(inplace=True)
            )
            (cv2): Conv(
              (conv): Conv2d(192, 192, kernel_size=(3, 3), stride=(1, 1), padding=(1, 1), bias=False)
              (bn): BatchNorm2d(192, eps=0.001, momentum=0.03, affine=True, track_running_stats=True)
              (act): SiLU(inplace=True)
            )
          )
          (1): Bottleneck(
            (cv1): Conv(
              (conv): Conv2d(192, 192, kernel_size=(3, 3), stride=(1, 1), padding=(1, 1), bias=False)
              (bn): BatchNorm2d(192, eps=0.001, momentum=0.03, affine=True, track_running_stats=True)
              (act): SiLU(inplace=True)
            )
            (cv2): Conv(
              (conv): Conv2d(192, 192, kernel_size=(3, 3), stride=(1, 1), padding=(1, 1), bias=False)
              (bn): BatchNorm2d(192, eps=0.001, momentum=0.03, affine=True, track_running_stats=True)
              (act): SiLU(inplace=True)
            )
          )
        )
      )
    )
  )
  (9): SPPF(
    (cv1): Conv(
      (conv): Conv2d(768, 384, kernel_size=(1, 1), stride=(1, 1), bias=False)
      (bn): BatchNorm2d(384, eps=0.001, momentum=0.03, affine=True, track_running_stats=True)
      (act): SiLU(inplace=True)
    )
    (cv2): Conv(
      (conv): Conv2d(1536, 768, kernel_size=(1, 1), stride=(1, 1), bias=False)
      (bn): BatchNorm2d(768, eps=0.001, momentum=0.03, affine=True, track_running_stats=True)
      (act): SiLU(inplace=True)
    )
    (m): MaxPool2d(kernel_size=5, stride=1, padding=2, dilation=1, ceil_mode=False)
  )
)"]
	"backbone_b.0" [label="Conv(
  (conv): Conv2d(3, 96, kernel_size=(3, 3), stride=(2, 2), padding=(1, 1), bias=False)
  (bn): BatchNorm2d(96, eps=0.001, momentum=0.03, affine=True, track_running_stats=True)
  (act): SiLU(inplace=True)
)"]
	"backbone_b.0.conv" [label="Conv2d(3, 96, kernel_size=(3, 3), stride=(2, 2), padding=(1, 1), bias=False)"]
	"backbone_b.0.bn" [label="BatchNorm2d(96, eps=0.001, momentum=0.03, affine=True, track_running_stats=True)"]
	"backbone_b.0.act" [label="SiLU(inplace=True)"]
	"backbone_b.1" [label="Conv(
  (conv): Conv2d(96, 192, kernel_size=(3, 3), stride=(2, 2), padding=(1, 1), bias=False)
  (bn): BatchNorm2d(192, eps=0.001, momentum=0.03, affine=True, track_running_stats=True)
  (act): SiLU(inplace=True)
)"]
	"backbone_b.1.conv" [label="Conv2d(96, 192, kernel_size=(3, 3), stride=(2, 2), padding=(1, 1), bias=False)"]
	"backbone_b.1.bn" [label="BatchNorm2d(192, eps=0.001, momentum=0.03, affine=True, track_running_stats=True)"]
	"backbone_b.1.act" [label="SiLU(inplace=True)"]
	"backbone_b.2" [label="C3k2(
  (cv1): Conv(
    (conv): Conv2d(192, 192, kernel_size=(1, 1), stride=(1, 1), bias=False)
    (bn): BatchNorm2d(192, eps=0.001, momentum=0.03, affine=True, track_running_stats=True)
    (act): SiLU(inplace=True)
  )
  (cv2): Conv(
    (conv): Conv2d(384, 384, kernel_size=(1, 1), stride=(1, 1), bias=False)
    (bn): BatchNorm2d(384, eps=0.001, momentum=0.03, affine=True, track_running_stats=True)
    (act): SiLU(inplace=True)
  )
  (m): ModuleList(
    (0-1): 2 x C3k(
      (cv1): Conv(
        (conv): Conv2d(96, 48, kernel_size=(1, 1), stride=(1, 1), bias=False)
        (bn): BatchNorm2d(48, eps=0.001, momentum=0.03, affine=True, track_running_stats=True)
        (act): SiLU(inplace=True)
      )
      (cv2): Conv(
        (conv): Conv2d(96, 48, kernel_size=(1, 1), stride=(1, 1), bias=False)
        (bn): BatchNorm2d(48, eps=0.001, momentum=0.03, affine=True, track_running_stats=True)
        (act): SiLU(inplace=True)
      )
      (cv3): Conv(
        (conv): Conv2d(96, 96, kernel_size=(1, 1), stride=(1, 1), bias=False)
        (bn): BatchNorm2d(96, eps=0.001, momentum=0.03, affine=True, track_running_stats=True)
        (act): SiLU(inplace=True)
      )
      (m): Sequential(
        (0): Bottleneck(
          (cv1): Conv(
            (conv): Conv2d(48, 48, kernel_size=(3, 3), stride=(1, 1), padding=(1, 1), bias=False)
            (bn): BatchNorm2d(48, eps=0.001, momentum=0.03, affine=True, track_running_stats=True)
            (act): SiLU(inplace=True)
          )
          (cv2): Conv(
            (conv): Conv2d(48, 48, kernel_size=(3, 3), stride=(1, 1), padding=(1, 1), bias=False)
            (bn): BatchNorm2d(48, eps=0.001, momentum=0.03, affine=True, track_running_stats=True)
            (act): SiLU(inplace=True)
          )
        )
        (1): Bottleneck(
          (cv1): Conv(
            (conv): Conv2d(48, 48, kernel_size=(3, 3), stride=(1, 1), padding=(1, 1), bias=False)
            (bn): BatchNorm2d(48, eps=0.001, momentum=0.03, affine=True, track_running_stats=True)
            (act): SiLU(inplace=True)
          )
          (cv2): Conv(
            (conv): Conv2d(48, 48, kernel_size=(3, 3), stride=(1, 1), padding=(1, 1), bias=False)
            (bn): BatchNorm2d(48, eps=0.001, momentum=0.03, affine=True, track_running_stats=True)
            (act): SiLU(inplace=True)
          )
        )
      )
    )
  )
)"]
	"backbone_b.2.cv1" [label="Conv(
  (conv): Conv2d(192, 192, kernel_size=(1, 1), stride=(1, 1), bias=False)
  (bn): BatchNorm2d(192, eps=0.001, momentum=0.03, affine=True, track_running_stats=True)
  (act): SiLU(inplace=True)
)"]
	"backbone_b.2.cv1.conv" [label="Conv2d(192, 192, kernel_size=(1, 1), stride=(1, 1), bias=False)"]
	"backbone_b.2.cv1.bn" [label="BatchNorm2d(192, eps=0.001, momentum=0.03, affine=True, track_running_stats=True)"]
	"backbone_b.2.cv1.act" [label="SiLU(inplace=True)"]
	"backbone_b.2.cv2" [label="Conv(
  (conv): Conv2d(384, 384, kernel_size=(1, 1), stride=(1, 1), bias=False)
  (bn): BatchNorm2d(384, eps=0.001, momentum=0.03, affine=True, track_running_stats=True)
  (act): SiLU(inplace=True)
)"]
	"backbone_b.2.cv2.conv" [label="Conv2d(384, 384, kernel_size=(1, 1), stride=(1, 1), bias=False)"]
	"backbone_b.2.cv2.bn" [label="BatchNorm2d(384, eps=0.001, momentum=0.03, affine=True, track_running_stats=True)"]
	"backbone_b.2.cv2.act" [label="SiLU(inplace=True)"]
	"backbone_b.2.m" [label="ModuleList(
  (0-1): 2 x C3k(
    (cv1): Conv(
      (conv): Conv2d(96, 48, kernel_size=(1, 1), stride=(1, 1), bias=False)
      (bn): BatchNorm2d(48, eps=0.001, momentum=0.03, affine=True, track_running_stats=True)
      (act): SiLU(inplace=True)
    )
    (cv2): Conv(
      (conv): Conv2d(96, 48, kernel_size=(1, 1), stride=(1, 1), bias=False)
      (bn): BatchNorm2d(48, eps=0.001, momentum=0.03, affine=True, track_running_stats=True)
      (act): SiLU(inplace=True)
    )
    (cv3): Conv(
      (conv): Conv2d(96, 96, kernel_size=(1, 1), stride=(1, 1), bias=False)
      (bn): BatchNorm2d(96, eps=0.001, momentum=0.03, affine=True, track_running_stats=True)
      (act): SiLU(inplace=True)
    )
    (m): Sequential(
      (0): Bottleneck(
        (cv1): Conv(
          (conv): Conv2d(48, 48, kernel_size=(3, 3), stride=(1, 1), padding=(1, 1), bias=False)
          (bn): BatchNorm2d(48, eps=0.001, momentum=0.03, affine=True, track_running_stats=True)
          (act): SiLU(inplace=True)
        )
        (cv2): Conv(
          (conv): Conv2d(48, 48, kernel_size=(3, 3), stride=(1, 1), padding=(1, 1), bias=False)
          (bn): BatchNorm2d(48, eps=0.001, momentum=0.03, affine=True, track_running_stats=True)
          (act): SiLU(inplace=True)
        )
      )
      (1): Bottleneck(
        (cv1): Conv(
          (conv): Conv2d(48, 48, kernel_size=(3, 3), stride=(1, 1), padding=(1, 1), bias=False)
          (bn): BatchNorm2d(48, eps=0.001, momentum=0.03, affine=True, track_running_stats=True)
          (act): SiLU(inplace=True)
        )
        (cv2): Conv(
          (conv): Conv2d(48, 48, kernel_size=(3, 3), stride=(1, 1), padding=(1, 1), bias=False)
          (bn): BatchNorm2d(48, eps=0.001, momentum=0.03, affine=True, track_running_stats=True)
          (act): SiLU(inplace=True)
        )
      )
    )
  )
)"]
	"backbone_b.2.m.0" [label="C3k(
  (cv1): Conv(
    (conv): Conv2d(96, 48, kernel_size=(1, 1), stride=(1, 1), bias=False)
    (bn): BatchNorm2d(48, eps=0.001, momentum=0.03, affine=True, track_running_stats=True)
    (act): SiLU(inplace=True)
  )
  (cv2): Conv(
    (conv): Conv2d(96, 48, kernel_size=(1, 1), stride=(1, 1), bias=False)
    (bn): BatchNorm2d(48, eps=0.001, momentum=0.03, affine=True, track_running_stats=True)
    (act): SiLU(inplace=True)
  )
  (cv3): Conv(
    (conv): Conv2d(96, 96, kernel_size=(1, 1), stride=(1, 1), bias=False)
    (bn): BatchNorm2d(96, eps=0.001, momentum=0.03, affine=True, track_running_stats=True)
    (act): SiLU(inplace=True)
  )
  (m): Sequential(
    (0): Bottleneck(
      (cv1): Conv(
        (conv): Conv2d(48, 48, kernel_size=(3, 3), stride=(1, 1), padding=(1, 1), bias=False)
        (bn): BatchNorm2d(48, eps=0.001, momentum=0.03, affine=True, track_running_stats=True)
        (act): SiLU(inplace=True)
      )
      (cv2): Conv(
        (conv): Conv2d(48, 48, kernel_size=(3, 3), stride=(1, 1), padding=(1, 1), bias=False)
        (bn): BatchNorm2d(48, eps=0.001, momentum=0.03, affine=True, track_running_stats=True)
        (act): SiLU(inplace=True)
      )
    )
    (1): Bottleneck(
      (cv1): Conv(
        (conv): Conv2d(48, 48, kernel_size=(3, 3), stride=(1, 1), padding=(1, 1), bias=False)
        (bn): BatchNorm2d(48, eps=0.001, momentum=0.03, affine=True, track_running_stats=True)
        (act): SiLU(inplace=True)
      )
      (cv2): Conv(
        (conv): Conv2d(48, 48, kernel_size=(3, 3), stride=(1, 1), padding=(1, 1), bias=False)
        (bn): BatchNorm2d(48, eps=0.001, momentum=0.03, affine=True, track_running_stats=True)
        (act): SiLU(inplace=True)
      )
    )
  )
)"]
	"backbone_b.2.m.0.cv1" [label="Conv(
  (conv): Conv2d(96, 48, kernel_size=(1, 1), stride=(1, 1), bias=False)
  (bn): BatchNorm2d(48, eps=0.001, momentum=0.03, affine=True, track_running_stats=True)
  (act): SiLU(inplace=True)
)"]
	"backbone_b.2.m.0.cv1.conv" [label="Conv2d(96, 48, kernel_size=(1, 1), stride=(1, 1), bias=False)"]
	"backbone_b.2.m.0.cv1.bn" [label="BatchNorm2d(48, eps=0.001, momentum=0.03, affine=True, track_running_stats=True)"]
	"backbone_b.2.m.0.cv1.act" [label="SiLU(inplace=True)"]
	"backbone_b.2.m.0.cv2" [label="Conv(
  (conv): Conv2d(96, 48, kernel_size=(1, 1), stride=(1, 1), bias=False)
  (bn): BatchNorm2d(48, eps=0.001, momentum=0.03, affine=True, track_running_stats=True)
  (act): SiLU(inplace=True)
)"]
	"backbone_b.2.m.0.cv2.conv" [label="Conv2d(96, 48, kernel_size=(1, 1), stride=(1, 1), bias=False)"]
	"backbone_b.2.m.0.cv2.bn" [label="BatchNorm2d(48, eps=0.001, momentum=0.03, affine=True, track_running_stats=True)"]
	"backbone_b.2.m.0.cv2.act" [label="SiLU(inplace=True)"]
	"backbone_b.2.m.0.cv3" [label="Conv(
  (conv): Conv2d(96, 96, kernel_size=(1, 1), stride=(1, 1), bias=False)
  (bn): BatchNorm2d(96, eps=0.001, momentum=0.03, affine=True, track_running_stats=True)
  (act): SiLU(inplace=True)
)"]
	"backbone_b.2.m.0.cv3.conv" [label="Conv2d(96, 96, kernel_size=(1, 1), stride=(1, 1), bias=False)"]
	"backbone_b.2.m.0.cv3.bn" [label="BatchNorm2d(96, eps=0.001, momentum=0.03, affine=True, track_running_stats=True)"]
	"backbone_b.2.m.0.cv3.act" [label="SiLU(inplace=True)"]
	"backbone_b.2.m.0.m" [label="Sequential(
  (0): Bottleneck(
    (cv1): Conv(
      (conv): Conv2d(48, 48, kernel_size=(3, 3), stride=(1, 1), padding=(1, 1), bias=False)
      (bn): BatchNorm2d(48, eps=0.001, momentum=0.03, affine=True, track_running_stats=True)
      (act): SiLU(inplace=True)
    )
    (cv2): Conv(
      (conv): Conv2d(48, 48, kernel_size=(3, 3), stride=(1, 1), padding=(1, 1), bias=False)
      (bn): BatchNorm2d(48, eps=0.001, momentum=0.03, affine=True, track_running_stats=True)
      (act): SiLU(inplace=True)
    )
  )
  (1): Bottleneck(
    (cv1): Conv(
      (conv): Conv2d(48, 48, kernel_size=(3, 3), stride=(1, 1), padding=(1, 1), bias=False)
      (bn): BatchNorm2d(48, eps=0.001, momentum=0.03, affine=True, track_running_stats=True)
      (act): SiLU(inplace=True)
    )
    (cv2): Conv(
      (conv): Conv2d(48, 48, kernel_size=(3, 3), stride=(1, 1), padding=(1, 1), bias=False)
      (bn): BatchNorm2d(48, eps=0.001, momentum=0.03, affine=True, track_running_stats=True)
      (act): SiLU(inplace=True)
    )
  )
)"]
	"backbone_b.2.m.0.m.0" [label="Bottleneck(
  (cv1): Conv(
    (conv): Conv2d(48, 48, kernel_size=(3, 3), stride=(1, 1), padding=(1, 1), bias=False)
    (bn): BatchNorm2d(48, eps=0.001, momentum=0.03, affine=True, track_running_stats=True)
    (act): SiLU(inplace=True)
  )
  (cv2): Conv(
    (conv): Conv2d(48, 48, kernel_size=(3, 3), stride=(1, 1), padding=(1, 1), bias=False)
    (bn): BatchNorm2d(48, eps=0.001, momentum=0.03, affine=True, track_running_stats=True)
    (act): SiLU(inplace=True)
  )
)"]
	"backbone_b.2.m.0.m.0.cv1" [label="Conv(
  (conv): Conv2d(48, 48, kernel_size=(3, 3), stride=(1, 1), padding=(1, 1), bias=False)
  (bn): BatchNorm2d(48, eps=0.001, momentum=0.03, affine=True, track_running_stats=True)
  (act): SiLU(inplace=True)
)"]
	"backbone_b.2.m.0.m.0.cv1.conv" [label="Conv2d(48, 48, kernel_size=(3, 3), stride=(1, 1), padding=(1, 1), bias=False)"]
	"backbone_b.2.m.0.m.0.cv1.bn" [label="BatchNorm2d(48, eps=0.001, momentum=0.03, affine=True, track_running_stats=True)"]
	"backbone_b.2.m.0.m.0.cv1.act" [label="SiLU(inplace=True)"]
	"backbone_b.2.m.0.m.0.cv2" [label="Conv(
  (conv): Conv2d(48, 48, kernel_size=(3, 3), stride=(1, 1), padding=(1, 1), bias=False)
  (bn): BatchNorm2d(48, eps=0.001, momentum=0.03, affine=True, track_running_stats=True)
  (act): SiLU(inplace=True)
)"]
	"backbone_b.2.m.0.m.0.cv2.conv" [label="Conv2d(48, 48, kernel_size=(3, 3), stride=(1, 1), padding=(1, 1), bias=False)"]
	"backbone_b.2.m.0.m.0.cv2.bn" [label="BatchNorm2d(48, eps=0.001, momentum=0.03, affine=True, track_running_stats=True)"]
	"backbone_b.2.m.0.m.0.cv2.act" [label="SiLU(inplace=True)"]
	"backbone_b.2.m.0.m.1" [label="Bottleneck(
  (cv1): Conv(
    (conv): Conv2d(48, 48, kernel_size=(3, 3), stride=(1, 1), padding=(1, 1), bias=False)
    (bn): BatchNorm2d(48, eps=0.001, momentum=0.03, affine=True, track_running_stats=True)
    (act): SiLU(inplace=True)
  )
  (cv2): Conv(
    (conv): Conv2d(48, 48, kernel_size=(3, 3), stride=(1, 1), padding=(1, 1), bias=False)
    (bn): BatchNorm2d(48, eps=0.001, momentum=0.03, affine=True, track_running_stats=True)
    (act): SiLU(inplace=True)
  )
)"]
	"backbone_b.2.m.0.m.1.cv1" [label="Conv(
  (conv): Conv2d(48, 48, kernel_size=(3, 3), stride=(1, 1), padding=(1, 1), bias=False)
  (bn): BatchNorm2d(48, eps=0.001, momentum=0.03, affine=True, track_running_stats=True)
  (act): SiLU(inplace=True)
)"]
	"backbone_b.2.m.0.m.1.cv1.conv" [label="Conv2d(48, 48, kernel_size=(3, 3), stride=(1, 1), padding=(1, 1), bias=False)"]
	"backbone_b.2.m.0.m.1.cv1.bn" [label="BatchNorm2d(48, eps=0.001, momentum=0.03, affine=True, track_running_stats=True)"]
	"backbone_b.2.m.0.m.1.cv1.act" [label="SiLU(inplace=True)"]
	"backbone_b.2.m.0.m.1.cv2" [label="Conv(
  (conv): Conv2d(48, 48, kernel_size=(3, 3), stride=(1, 1), padding=(1, 1), bias=False)
  (bn): BatchNorm2d(48, eps=0.001, momentum=0.03, affine=True, track_running_stats=True)
  (act): SiLU(inplace=True)
)"]
	"backbone_b.2.m.0.m.1.cv2.conv" [label="Conv2d(48, 48, kernel_size=(3, 3), stride=(1, 1), padding=(1, 1), bias=False)"]
	"backbone_b.2.m.0.m.1.cv2.bn" [label="BatchNorm2d(48, eps=0.001, momentum=0.03, affine=True, track_running_stats=True)"]
	"backbone_b.2.m.0.m.1.cv2.act" [label="SiLU(inplace=True)"]
	"backbone_b.2.m.1" [label="C3k(
  (cv1): Conv(
    (conv): Conv2d(96, 48, kernel_size=(1, 1), stride=(1, 1), bias=False)
    (bn): BatchNorm2d(48, eps=0.001, momentum=0.03, affine=True, track_running_stats=True)
    (act): SiLU(inplace=True)
  )
  (cv2): Conv(
    (conv): Conv2d(96, 48, kernel_size=(1, 1), stride=(1, 1), bias=False)
    (bn): BatchNorm2d(48, eps=0.001, momentum=0.03, affine=True, track_running_stats=True)
    (act): SiLU(inplace=True)
  )
  (cv3): Conv(
    (conv): Conv2d(96, 96, kernel_size=(1, 1), stride=(1, 1), bias=False)
    (bn): BatchNorm2d(96, eps=0.001, momentum=0.03, affine=True, track_running_stats=True)
    (act): SiLU(inplace=True)
  )
  (m): Sequential(
    (0): Bottleneck(
      (cv1): Conv(
        (conv): Conv2d(48, 48, kernel_size=(3, 3), stride=(1, 1), padding=(1, 1), bias=False)
        (bn): BatchNorm2d(48, eps=0.001, momentum=0.03, affine=True, track_running_stats=True)
        (act): SiLU(inplace=True)
      )
      (cv2): Conv(
        (conv): Conv2d(48, 48, kernel_size=(3, 3), stride=(1, 1), padding=(1, 1), bias=False)
        (bn): BatchNorm2d(48, eps=0.001, momentum=0.03, affine=True, track_running_stats=True)
        (act): SiLU(inplace=True)
      )
    )
    (1): Bottleneck(
      (cv1): Conv(
        (conv): Conv2d(48, 48, kernel_size=(3, 3), stride=(1, 1), padding=(1, 1), bias=False)
        (bn): BatchNorm2d(48, eps=0.001, momentum=0.03, affine=True, track_running_stats=True)
        (act): SiLU(inplace=True)
      )
      (cv2): Conv(
        (conv): Conv2d(48, 48, kernel_size=(3, 3), stride=(1, 1), padding=(1, 1), bias=False)
        (bn): BatchNorm2d(48, eps=0.001, momentum=0.03, affine=True, track_running_stats=True)
        (act): SiLU(inplace=True)
      )
    )
  )
)"]
	"backbone_b.2.m.1.cv1" [label="Conv(
  (conv): Conv2d(96, 48, kernel_size=(1, 1), stride=(1, 1), bias=False)
  (bn): BatchNorm2d(48, eps=0.001, momentum=0.03, affine=True, track_running_stats=True)
  (act): SiLU(inplace=True)
)"]
	"backbone_b.2.m.1.cv1.conv" [label="Conv2d(96, 48, kernel_size=(1, 1), stride=(1, 1), bias=False)"]
	"backbone_b.2.m.1.cv1.bn" [label="BatchNorm2d(48, eps=0.001, momentum=0.03, affine=True, track_running_stats=True)"]
	"backbone_b.2.m.1.cv1.act" [label="SiLU(inplace=True)"]
	"backbone_b.2.m.1.cv2" [label="Conv(
  (conv): Conv2d(96, 48, kernel_size=(1, 1), stride=(1, 1), bias=False)
  (bn): BatchNorm2d(48, eps=0.001, momentum=0.03, affine=True, track_running_stats=True)
  (act): SiLU(inplace=True)
)"]
	"backbone_b.2.m.1.cv2.conv" [label="Conv2d(96, 48, kernel_size=(1, 1), stride=(1, 1), bias=False)"]
	"backbone_b.2.m.1.cv2.bn" [label="BatchNorm2d(48, eps=0.001, momentum=0.03, affine=True, track_running_stats=True)"]
	"backbone_b.2.m.1.cv2.act" [label="SiLU(inplace=True)"]
	"backbone_b.2.m.1.cv3" [label="Conv(
  (conv): Conv2d(96, 96, kernel_size=(1, 1), stride=(1, 1), bias=False)
  (bn): BatchNorm2d(96, eps=0.001, momentum=0.03, affine=True, track_running_stats=True)
  (act): SiLU(inplace=True)
)"]
	"backbone_b.2.m.1.cv3.conv" [label="Conv2d(96, 96, kernel_size=(1, 1), stride=(1, 1), bias=False)"]
	"backbone_b.2.m.1.cv3.bn" [label="BatchNorm2d(96, eps=0.001, momentum=0.03, affine=True, track_running_stats=True)"]
	"backbone_b.2.m.1.cv3.act" [label="SiLU(inplace=True)"]
	"backbone_b.2.m.1.m" [label="Sequential(
  (0): Bottleneck(
    (cv1): Conv(
      (conv): Conv2d(48, 48, kernel_size=(3, 3), stride=(1, 1), padding=(1, 1), bias=False)
      (bn): BatchNorm2d(48, eps=0.001, momentum=0.03, affine=True, track_running_stats=True)
      (act): SiLU(inplace=True)
    )
    (cv2): Conv(
      (conv): Conv2d(48, 48, kernel_size=(3, 3), stride=(1, 1), padding=(1, 1), bias=False)
      (bn): BatchNorm2d(48, eps=0.001, momentum=0.03, affine=True, track_running_stats=True)
      (act): SiLU(inplace=True)
    )
  )
  (1): Bottleneck(
    (cv1): Conv(
      (conv): Conv2d(48, 48, kernel_size=(3, 3), stride=(1, 1), padding=(1, 1), bias=False)
      (bn): BatchNorm2d(48, eps=0.001, momentum=0.03, affine=True, track_running_stats=True)
      (act): SiLU(inplace=True)
    )
    (cv2): Conv(
      (conv): Conv2d(48, 48, kernel_size=(3, 3), stride=(1, 1), padding=(1, 1), bias=False)
      (bn): BatchNorm2d(48, eps=0.001, momentum=0.03, affine=True, track_running_stats=True)
      (act): SiLU(inplace=True)
    )
  )
)"]
	"backbone_b.2.m.1.m.0" [label="Bottleneck(
  (cv1): Conv(
    (conv): Conv2d(48, 48, kernel_size=(3, 3), stride=(1, 1), padding=(1, 1), bias=False)
    (bn): BatchNorm2d(48, eps=0.001, momentum=0.03, affine=True, track_running_stats=True)
    (act): SiLU(inplace=True)
  )
  (cv2): Conv(
    (conv): Conv2d(48, 48, kernel_size=(3, 3), stride=(1, 1), padding=(1, 1), bias=False)
    (bn): BatchNorm2d(48, eps=0.001, momentum=0.03, affine=True, track_running_stats=True)
    (act): SiLU(inplace=True)
  )
)"]
	"backbone_b.2.m.1.m.0.cv1" [label="Conv(
  (conv): Conv2d(48, 48, kernel_size=(3, 3), stride=(1, 1), padding=(1, 1), bias=False)
  (bn): BatchNorm2d(48, eps=0.001, momentum=0.03, affine=True, track_running_stats=True)
  (act): SiLU(inplace=True)
)"]
	"backbone_b.2.m.1.m.0.cv1.conv" [label="Conv2d(48, 48, kernel_size=(3, 3), stride=(1, 1), padding=(1, 1), bias=False)"]
	"backbone_b.2.m.1.m.0.cv1.bn" [label="BatchNorm2d(48, eps=0.001, momentum=0.03, affine=True, track_running_stats=True)"]
	"backbone_b.2.m.1.m.0.cv1.act" [label="SiLU(inplace=True)"]
	"backbone_b.2.m.1.m.0.cv2" [label="Conv(
  (conv): Conv2d(48, 48, kernel_size=(3, 3), stride=(1, 1), padding=(1, 1), bias=False)
  (bn): BatchNorm2d(48, eps=0.001, momentum=0.03, affine=True, track_running_stats=True)
  (act): SiLU(inplace=True)
)"]
	"backbone_b.2.m.1.m.0.cv2.conv" [label="Conv2d(48, 48, kernel_size=(3, 3), stride=(1, 1), padding=(1, 1), bias=False)"]
	"backbone_b.2.m.1.m.0.cv2.bn" [label="BatchNorm2d(48, eps=0.001, momentum=0.03, affine=True, track_running_stats=True)"]
	"backbone_b.2.m.1.m.0.cv2.act" [label="SiLU(inplace=True)"]
	"backbone_b.2.m.1.m.1" [label="Bottleneck(
  (cv1): Conv(
    (conv): Conv2d(48, 48, kernel_size=(3, 3), stride=(1, 1), padding=(1, 1), bias=False)
    (bn): BatchNorm2d(48, eps=0.001, momentum=0.03, affine=True, track_running_stats=True)
    (act): SiLU(inplace=True)
  )
  (cv2): Conv(
    (conv): Conv2d(48, 48, kernel_size=(3, 3), stride=(1, 1), padding=(1, 1), bias=False)
    (bn): BatchNorm2d(48, eps=0.001, momentum=0.03, affine=True, track_running_stats=True)
    (act): SiLU(inplace=True)
  )
)"]
	"backbone_b.2.m.1.m.1.cv1" [label="Conv(
  (conv): Conv2d(48, 48, kernel_size=(3, 3), stride=(1, 1), padding=(1, 1), bias=False)
  (bn): BatchNorm2d(48, eps=0.001, momentum=0.03, affine=True, track_running_stats=True)
  (act): SiLU(inplace=True)
)"]
	"backbone_b.2.m.1.m.1.cv1.conv" [label="Conv2d(48, 48, kernel_size=(3, 3), stride=(1, 1), padding=(1, 1), bias=False)"]
	"backbone_b.2.m.1.m.1.cv1.bn" [label="BatchNorm2d(48, eps=0.001, momentum=0.03, affine=True, track_running_stats=True)"]
	"backbone_b.2.m.1.m.1.cv1.act" [label="SiLU(inplace=True)"]
	"backbone_b.2.m.1.m.1.cv2" [label="Conv(
  (conv): Conv2d(48, 48, kernel_size=(3, 3), stride=(1, 1), padding=(1, 1), bias=False)
  (bn): BatchNorm2d(48, eps=0.001, momentum=0.03, affine=True, track_running_stats=True)
  (act): SiLU(inplace=True)
)"]
	"backbone_b.2.m.1.m.1.cv2.conv" [label="Conv2d(48, 48, kernel_size=(3, 3), stride=(1, 1), padding=(1, 1), bias=False)"]
	"backbone_b.2.m.1.m.1.cv2.bn" [label="BatchNorm2d(48, eps=0.001, momentum=0.03, affine=True, track_running_stats=True)"]
	"backbone_b.2.m.1.m.1.cv2.act" [label="SiLU(inplace=True)"]
	"backbone_b.3" [label="Conv(
  (conv): Conv2d(384, 384, kernel_size=(3, 3), stride=(2, 2), padding=(1, 1), bias=False)
  (bn): BatchNorm2d(384, eps=0.001, momentum=0.03, affine=True, track_running_stats=True)
  (act): SiLU(inplace=True)
)"]
	"backbone_b.3.conv" [label="Conv2d(384, 384, kernel_size=(3, 3), stride=(2, 2), padding=(1, 1), bias=False)"]
	"backbone_b.3.bn" [label="BatchNorm2d(384, eps=0.001, momentum=0.03, affine=True, track_running_stats=True)"]
	"backbone_b.3.act" [label="SiLU(inplace=True)"]
	"backbone_b.4" [label="C3k2(
  (cv1): Conv(
    (conv): Conv2d(384, 384, kernel_size=(1, 1), stride=(1, 1), bias=False)
    (bn): BatchNorm2d(384, eps=0.001, momentum=0.03, affine=True, track_running_stats=True)
    (act): SiLU(inplace=True)
  )
  (cv2): Conv(
    (conv): Conv2d(768, 768, kernel_size=(1, 1), stride=(1, 1), bias=False)
    (bn): BatchNorm2d(768, eps=0.001, momentum=0.03, affine=True, track_running_stats=True)
    (act): SiLU(inplace=True)
  )
  (m): ModuleList(
    (0-1): 2 x C3k(
      (cv1): Conv(
        (conv): Conv2d(192, 96, kernel_size=(1, 1), stride=(1, 1), bias=False)
        (bn): BatchNorm2d(96, eps=0.001, momentum=0.03, affine=True, track_running_stats=True)
        (act): SiLU(inplace=True)
      )
      (cv2): Conv(
        (conv): Conv2d(192, 96, kernel_size=(1, 1), stride=(1, 1), bias=False)
        (bn): BatchNorm2d(96, eps=0.001, momentum=0.03, affine=True, track_running_stats=True)
        (act): SiLU(inplace=True)
      )
      (cv3): Conv(
        (conv): Conv2d(192, 192, kernel_size=(1, 1), stride=(1, 1), bias=False)
        (bn): BatchNorm2d(192, eps=0.001, momentum=0.03, affine=True, track_running_stats=True)
        (act): SiLU(inplace=True)
      )
      (m): Sequential(
        (0): Bottleneck(
          (cv1): Conv(
            (conv): Conv2d(96, 96, kernel_size=(3, 3), stride=(1, 1), padding=(1, 1), bias=False)
            (bn): BatchNorm2d(96, eps=0.001, momentum=0.03, affine=True, track_running_stats=True)
            (act): SiLU(inplace=True)
          )
          (cv2): Conv(
            (conv): Conv2d(96, 96, kernel_size=(3, 3), stride=(1, 1), padding=(1, 1), bias=False)
            (bn): BatchNorm2d(96, eps=0.001, momentum=0.03, affine=True, track_running_stats=True)
            (act): SiLU(inplace=True)
          )
        )
        (1): Bottleneck(
          (cv1): Conv(
            (conv): Conv2d(96, 96, kernel_size=(3, 3), stride=(1, 1), padding=(1, 1), bias=False)
            (bn): BatchNorm2d(96, eps=0.001, momentum=0.03, affine=True, track_running_stats=True)
            (act): SiLU(inplace=True)
          )
          (cv2): Conv(
            (conv): Conv2d(96, 96, kernel_size=(3, 3), stride=(1, 1), padding=(1, 1), bias=False)
            (bn): BatchNorm2d(96, eps=0.001, momentum=0.03, affine=True, track_running_stats=True)
            (act): SiLU(inplace=True)
          )
        )
      )
    )
  )
)"]
	"backbone_b.4.cv1" [label="Conv(
  (conv): Conv2d(384, 384, kernel_size=(1, 1), stride=(1, 1), bias=False)
  (bn): BatchNorm2d(384, eps=0.001, momentum=0.03, affine=True, track_running_stats=True)
  (act): SiLU(inplace=True)
)"]
	"backbone_b.4.cv1.conv" [label="Conv2d(384, 384, kernel_size=(1, 1), stride=(1, 1), bias=False)"]
	"backbone_b.4.cv1.bn" [label="BatchNorm2d(384, eps=0.001, momentum=0.03, affine=True, track_running_stats=True)"]
	"backbone_b.4.cv1.act" [label="SiLU(inplace=True)"]
	"backbone_b.4.cv2" [label="Conv(
  (conv): Conv2d(768, 768, kernel_size=(1, 1), stride=(1, 1), bias=False)
  (bn): BatchNorm2d(768, eps=0.001, momentum=0.03, affine=True, track_running_stats=True)
  (act): SiLU(inplace=True)
)"]
	"backbone_b.4.cv2.conv" [label="Conv2d(768, 768, kernel_size=(1, 1), stride=(1, 1), bias=False)"]
	"backbone_b.4.cv2.bn" [label="BatchNorm2d(768, eps=0.001, momentum=0.03, affine=True, track_running_stats=True)"]
	"backbone_b.4.cv2.act" [label="SiLU(inplace=True)"]
	"backbone_b.4.m" [label="ModuleList(
  (0-1): 2 x C3k(
    (cv1): Conv(
      (conv): Conv2d(192, 96, kernel_size=(1, 1), stride=(1, 1), bias=False)
      (bn): BatchNorm2d(96, eps=0.001, momentum=0.03, affine=True, track_running_stats=True)
      (act): SiLU(inplace=True)
    )
    (cv2): Conv(
      (conv): Conv2d(192, 96, kernel_size=(1, 1), stride=(1, 1), bias=False)
      (bn): BatchNorm2d(96, eps=0.001, momentum=0.03, affine=True, track_running_stats=True)
      (act): SiLU(inplace=True)
    )
    (cv3): Conv(
      (conv): Conv2d(192, 192, kernel_size=(1, 1), stride=(1, 1), bias=False)
      (bn): BatchNorm2d(192, eps=0.001, momentum=0.03, affine=True, track_running_stats=True)
      (act): SiLU(inplace=True)
    )
    (m): Sequential(
      (0): Bottleneck(
        (cv1): Conv(
          (conv): Conv2d(96, 96, kernel_size=(3, 3), stride=(1, 1), padding=(1, 1), bias=False)
          (bn): BatchNorm2d(96, eps=0.001, momentum=0.03, affine=True, track_running_stats=True)
          (act): SiLU(inplace=True)
        )
        (cv2): Conv(
          (conv): Conv2d(96, 96, kernel_size=(3, 3), stride=(1, 1), padding=(1, 1), bias=False)
          (bn): BatchNorm2d(96, eps=0.001, momentum=0.03, affine=True, track_running_stats=True)
          (act): SiLU(inplace=True)
        )
      )
      (1): Bottleneck(
        (cv1): Conv(
          (conv): Conv2d(96, 96, kernel_size=(3, 3), stride=(1, 1), padding=(1, 1), bias=False)
          (bn): BatchNorm2d(96, eps=0.001, momentum=0.03, affine=True, track_running_stats=True)
          (act): SiLU(inplace=True)
        )
        (cv2): Conv(
          (conv): Conv2d(96, 96, kernel_size=(3, 3), stride=(1, 1), padding=(1, 1), bias=False)
          (bn): BatchNorm2d(96, eps=0.001, momentum=0.03, affine=True, track_running_stats=True)
          (act): SiLU(inplace=True)
        )
      )
    )
  )
)"]
	"backbone_b.4.m.0" [label="C3k(
  (cv1): Conv(
    (conv): Conv2d(192, 96, kernel_size=(1, 1), stride=(1, 1), bias=False)
    (bn): BatchNorm2d(96, eps=0.001, momentum=0.03, affine=True, track_running_stats=True)
    (act): SiLU(inplace=True)
  )
  (cv2): Conv(
    (conv): Conv2d(192, 96, kernel_size=(1, 1), stride=(1, 1), bias=False)
    (bn): BatchNorm2d(96, eps=0.001, momentum=0.03, affine=True, track_running_stats=True)
    (act): SiLU(inplace=True)
  )
  (cv3): Conv(
    (conv): Conv2d(192, 192, kernel_size=(1, 1), stride=(1, 1), bias=False)
    (bn): BatchNorm2d(192, eps=0.001, momentum=0.03, affine=True, track_running_stats=True)
    (act): SiLU(inplace=True)
  )
  (m): Sequential(
    (0): Bottleneck(
      (cv1): Conv(
        (conv): Conv2d(96, 96, kernel_size=(3, 3), stride=(1, 1), padding=(1, 1), bias=False)
        (bn): BatchNorm2d(96, eps=0.001, momentum=0.03, affine=True, track_running_stats=True)
        (act): SiLU(inplace=True)
      )
      (cv2): Conv(
        (conv): Conv2d(96, 96, kernel_size=(3, 3), stride=(1, 1), padding=(1, 1), bias=False)
        (bn): BatchNorm2d(96, eps=0.001, momentum=0.03, affine=True, track_running_stats=True)
        (act): SiLU(inplace=True)
      )
    )
    (1): Bottleneck(
      (cv1): Conv(
        (conv): Conv2d(96, 96, kernel_size=(3, 3), stride=(1, 1), padding=(1, 1), bias=False)
        (bn): BatchNorm2d(96, eps=0.001, momentum=0.03, affine=True, track_running_stats=True)
        (act): SiLU(inplace=True)
      )
      (cv2): Conv(
        (conv): Conv2d(96, 96, kernel_size=(3, 3), stride=(1, 1), padding=(1, 1), bias=False)
        (bn): BatchNorm2d(96, eps=0.001, momentum=0.03, affine=True, track_running_stats=True)
        (act): SiLU(inplace=True)
      )
    )
  )
)"]
	"backbone_b.4.m.0.cv1" [label="Conv(
  (conv): Conv2d(192, 96, kernel_size=(1, 1), stride=(1, 1), bias=False)
  (bn): BatchNorm2d(96, eps=0.001, momentum=0.03, affine=True, track_running_stats=True)
  (act): SiLU(inplace=True)
)"]
	"backbone_b.4.m.0.cv1.conv" [label="Conv2d(192, 96, kernel_size=(1, 1), stride=(1, 1), bias=False)"]
	"backbone_b.4.m.0.cv1.bn" [label="BatchNorm2d(96, eps=0.001, momentum=0.03, affine=True, track_running_stats=True)"]
	"backbone_b.4.m.0.cv1.act" [label="SiLU(inplace=True)"]
	"backbone_b.4.m.0.cv2" [label="Conv(
  (conv): Conv2d(192, 96, kernel_size=(1, 1), stride=(1, 1), bias=False)
  (bn): BatchNorm2d(96, eps=0.001, momentum=0.03, affine=True, track_running_stats=True)
  (act): SiLU(inplace=True)
)"]
	"backbone_b.4.m.0.cv2.conv" [label="Conv2d(192, 96, kernel_size=(1, 1), stride=(1, 1), bias=False)"]
	"backbone_b.4.m.0.cv2.bn" [label="BatchNorm2d(96, eps=0.001, momentum=0.03, affine=True, track_running_stats=True)"]
	"backbone_b.4.m.0.cv2.act" [label="SiLU(inplace=True)"]
	"backbone_b.4.m.0.cv3" [label="Conv(
  (conv): Conv2d(192, 192, kernel_size=(1, 1), stride=(1, 1), bias=False)
  (bn): BatchNorm2d(192, eps=0.001, momentum=0.03, affine=True, track_running_stats=True)
  (act): SiLU(inplace=True)
)"]
	"backbone_b.4.m.0.cv3.conv" [label="Conv2d(192, 192, kernel_size=(1, 1), stride=(1, 1), bias=False)"]
	"backbone_b.4.m.0.cv3.bn" [label="BatchNorm2d(192, eps=0.001, momentum=0.03, affine=True, track_running_stats=True)"]
	"backbone_b.4.m.0.cv3.act" [label="SiLU(inplace=True)"]
	"backbone_b.4.m.0.m" [label="Sequential(
  (0): Bottleneck(
    (cv1): Conv(
      (conv): Conv2d(96, 96, kernel_size=(3, 3), stride=(1, 1), padding=(1, 1), bias=False)
      (bn): BatchNorm2d(96, eps=0.001, momentum=0.03, affine=True, track_running_stats=True)
      (act): SiLU(inplace=True)
    )
    (cv2): Conv(
      (conv): Conv2d(96, 96, kernel_size=(3, 3), stride=(1, 1), padding=(1, 1), bias=False)
      (bn): BatchNorm2d(96, eps=0.001, momentum=0.03, affine=True, track_running_stats=True)
      (act): SiLU(inplace=True)
    )
  )
  (1): Bottleneck(
    (cv1): Conv(
      (conv): Conv2d(96, 96, kernel_size=(3, 3), stride=(1, 1), padding=(1, 1), bias=False)
      (bn): BatchNorm2d(96, eps=0.001, momentum=0.03, affine=True, track_running_stats=True)
      (act): SiLU(inplace=True)
    )
    (cv2): Conv(
      (conv): Conv2d(96, 96, kernel_size=(3, 3), stride=(1, 1), padding=(1, 1), bias=False)
      (bn): BatchNorm2d(96, eps=0.001, momentum=0.03, affine=True, track_running_stats=True)
      (act): SiLU(inplace=True)
    )
  )
)"]
	"backbone_b.4.m.0.m.0" [label="Bottleneck(
  (cv1): Conv(
    (conv): Conv2d(96, 96, kernel_size=(3, 3), stride=(1, 1), padding=(1, 1), bias=False)
    (bn): BatchNorm2d(96, eps=0.001, momentum=0.03, affine=True, track_running_stats=True)
    (act): SiLU(inplace=True)
  )
  (cv2): Conv(
    (conv): Conv2d(96, 96, kernel_size=(3, 3), stride=(1, 1), padding=(1, 1), bias=False)
    (bn): BatchNorm2d(96, eps=0.001, momentum=0.03, affine=True, track_running_stats=True)
    (act): SiLU(inplace=True)
  )
)"]
	"backbone_b.4.m.0.m.0.cv1" [label="Conv(
  (conv): Conv2d(96, 96, kernel_size=(3, 3), stride=(1, 1), padding=(1, 1), bias=False)
  (bn): BatchNorm2d(96, eps=0.001, momentum=0.03, affine=True, track_running_stats=True)
  (act): SiLU(inplace=True)
)"]
	"backbone_b.4.m.0.m.0.cv1.conv" [label="Conv2d(96, 96, kernel_size=(3, 3), stride=(1, 1), padding=(1, 1), bias=False)"]
	"backbone_b.4.m.0.m.0.cv1.bn" [label="BatchNorm2d(96, eps=0.001, momentum=0.03, affine=True, track_running_stats=True)"]
	"backbone_b.4.m.0.m.0.cv1.act" [label="SiLU(inplace=True)"]
	"backbone_b.4.m.0.m.0.cv2" [label="Conv(
  (conv): Conv2d(96, 96, kernel_size=(3, 3), stride=(1, 1), padding=(1, 1), bias=False)
  (bn): BatchNorm2d(96, eps=0.001, momentum=0.03, affine=True, track_running_stats=True)
  (act): SiLU(inplace=True)
)"]
	"backbone_b.4.m.0.m.0.cv2.conv" [label="Conv2d(96, 96, kernel_size=(3, 3), stride=(1, 1), padding=(1, 1), bias=False)"]
	"backbone_b.4.m.0.m.0.cv2.bn" [label="BatchNorm2d(96, eps=0.001, momentum=0.03, affine=True, track_running_stats=True)"]
	"backbone_b.4.m.0.m.0.cv2.act" [label="SiLU(inplace=True)"]
	"backbone_b.4.m.0.m.1" [label="Bottleneck(
  (cv1): Conv(
    (conv): Conv2d(96, 96, kernel_size=(3, 3), stride=(1, 1), padding=(1, 1), bias=False)
    (bn): BatchNorm2d(96, eps=0.001, momentum=0.03, affine=True, track_running_stats=True)
    (act): SiLU(inplace=True)
  )
  (cv2): Conv(
    (conv): Conv2d(96, 96, kernel_size=(3, 3), stride=(1, 1), padding=(1, 1), bias=False)
    (bn): BatchNorm2d(96, eps=0.001, momentum=0.03, affine=True, track_running_stats=True)
    (act): SiLU(inplace=True)
  )
)"]
	"backbone_b.4.m.0.m.1.cv1" [label="Conv(
  (conv): Conv2d(96, 96, kernel_size=(3, 3), stride=(1, 1), padding=(1, 1), bias=False)
  (bn): BatchNorm2d(96, eps=0.001, momentum=0.03, affine=True, track_running_stats=True)
  (act): SiLU(inplace=True)
)"]
	"backbone_b.4.m.0.m.1.cv1.conv" [label="Conv2d(96, 96, kernel_size=(3, 3), stride=(1, 1), padding=(1, 1), bias=False)"]
	"backbone_b.4.m.0.m.1.cv1.bn" [label="BatchNorm2d(96, eps=0.001, momentum=0.03, affine=True, track_running_stats=True)"]
	"backbone_b.4.m.0.m.1.cv1.act" [label="SiLU(inplace=True)"]
	"backbone_b.4.m.0.m.1.cv2" [label="Conv(
  (conv): Conv2d(96, 96, kernel_size=(3, 3), stride=(1, 1), padding=(1, 1), bias=False)
  (bn): BatchNorm2d(96, eps=0.001, momentum=0.03, affine=True, track_running_stats=True)
  (act): SiLU(inplace=True)
)"]
	"backbone_b.4.m.0.m.1.cv2.conv" [label="Conv2d(96, 96, kernel_size=(3, 3), stride=(1, 1), padding=(1, 1), bias=False)"]
	"backbone_b.4.m.0.m.1.cv2.bn" [label="BatchNorm2d(96, eps=0.001, momentum=0.03, affine=True, track_running_stats=True)"]
	"backbone_b.4.m.0.m.1.cv2.act" [label="SiLU(inplace=True)"]
	"backbone_b.4.m.1" [label="C3k(
  (cv1): Conv(
    (conv): Conv2d(192, 96, kernel_size=(1, 1), stride=(1, 1), bias=False)
    (bn): BatchNorm2d(96, eps=0.001, momentum=0.03, affine=True, track_running_stats=True)
    (act): SiLU(inplace=True)
  )
  (cv2): Conv(
    (conv): Conv2d(192, 96, kernel_size=(1, 1), stride=(1, 1), bias=False)
    (bn): BatchNorm2d(96, eps=0.001, momentum=0.03, affine=True, track_running_stats=True)
    (act): SiLU(inplace=True)
  )
  (cv3): Conv(
    (conv): Conv2d(192, 192, kernel_size=(1, 1), stride=(1, 1), bias=False)
    (bn): BatchNorm2d(192, eps=0.001, momentum=0.03, affine=True, track_running_stats=True)
    (act): SiLU(inplace=True)
  )
  (m): Sequential(
    (0): Bottleneck(
      (cv1): Conv(
        (conv): Conv2d(96, 96, kernel_size=(3, 3), stride=(1, 1), padding=(1, 1), bias=False)
        (bn): BatchNorm2d(96, eps=0.001, momentum=0.03, affine=True, track_running_stats=True)
        (act): SiLU(inplace=True)
      )
      (cv2): Conv(
        (conv): Conv2d(96, 96, kernel_size=(3, 3), stride=(1, 1), padding=(1, 1), bias=False)
        (bn): BatchNorm2d(96, eps=0.001, momentum=0.03, affine=True, track_running_stats=True)
        (act): SiLU(inplace=True)
      )
    )
    (1): Bottleneck(
      (cv1): Conv(
        (conv): Conv2d(96, 96, kernel_size=(3, 3), stride=(1, 1), padding=(1, 1), bias=False)
        (bn): BatchNorm2d(96, eps=0.001, momentum=0.03, affine=True, track_running_stats=True)
        (act): SiLU(inplace=True)
      )
      (cv2): Conv(
        (conv): Conv2d(96, 96, kernel_size=(3, 3), stride=(1, 1), padding=(1, 1), bias=False)
        (bn): BatchNorm2d(96, eps=0.001, momentum=0.03, affine=True, track_running_stats=True)
        (act): SiLU(inplace=True)
      )
    )
  )
)"]
	"backbone_b.4.m.1.cv1" [label="Conv(
  (conv): Conv2d(192, 96, kernel_size=(1, 1), stride=(1, 1), bias=False)
  (bn): BatchNorm2d(96, eps=0.001, momentum=0.03, affine=True, track_running_stats=True)
  (act): SiLU(inplace=True)
)"]
	"backbone_b.4.m.1.cv1.conv" [label="Conv2d(192, 96, kernel_size=(1, 1), stride=(1, 1), bias=False)"]
	"backbone_b.4.m.1.cv1.bn" [label="BatchNorm2d(96, eps=0.001, momentum=0.03, affine=True, track_running_stats=True)"]
	"backbone_b.4.m.1.cv1.act" [label="SiLU(inplace=True)"]
	"backbone_b.4.m.1.cv2" [label="Conv(
  (conv): Conv2d(192, 96, kernel_size=(1, 1), stride=(1, 1), bias=False)
  (bn): BatchNorm2d(96, eps=0.001, momentum=0.03, affine=True, track_running_stats=True)
  (act): SiLU(inplace=True)
)"]
	"backbone_b.4.m.1.cv2.conv" [label="Conv2d(192, 96, kernel_size=(1, 1), stride=(1, 1), bias=False)"]
	"backbone_b.4.m.1.cv2.bn" [label="BatchNorm2d(96, eps=0.001, momentum=0.03, affine=True, track_running_stats=True)"]
	"backbone_b.4.m.1.cv2.act" [label="SiLU(inplace=True)"]
	"backbone_b.4.m.1.cv3" [label="Conv(
  (conv): Conv2d(192, 192, kernel_size=(1, 1), stride=(1, 1), bias=False)
  (bn): BatchNorm2d(192, eps=0.001, momentum=0.03, affine=True, track_running_stats=True)
  (act): SiLU(inplace=True)
)"]
	"backbone_b.4.m.1.cv3.conv" [label="Conv2d(192, 192, kernel_size=(1, 1), stride=(1, 1), bias=False)"]
	"backbone_b.4.m.1.cv3.bn" [label="BatchNorm2d(192, eps=0.001, momentum=0.03, affine=True, track_running_stats=True)"]
	"backbone_b.4.m.1.cv3.act" [label="SiLU(inplace=True)"]
	"backbone_b.4.m.1.m" [label="Sequential(
  (0): Bottleneck(
    (cv1): Conv(
      (conv): Conv2d(96, 96, kernel_size=(3, 3), stride=(1, 1), padding=(1, 1), bias=False)
      (bn): BatchNorm2d(96, eps=0.001, momentum=0.03, affine=True, track_running_stats=True)
      (act): SiLU(inplace=True)
    )
    (cv2): Conv(
      (conv): Conv2d(96, 96, kernel_size=(3, 3), stride=(1, 1), padding=(1, 1), bias=False)
      (bn): BatchNorm2d(96, eps=0.001, momentum=0.03, affine=True, track_running_stats=True)
      (act): SiLU(inplace=True)
    )
  )
  (1): Bottleneck(
    (cv1): Conv(
      (conv): Conv2d(96, 96, kernel_size=(3, 3), stride=(1, 1), padding=(1, 1), bias=False)
      (bn): BatchNorm2d(96, eps=0.001, momentum=0.03, affine=True, track_running_stats=True)
      (act): SiLU(inplace=True)
    )
    (cv2): Conv(
      (conv): Conv2d(96, 96, kernel_size=(3, 3), stride=(1, 1), padding=(1, 1), bias=False)
      (bn): BatchNorm2d(96, eps=0.001, momentum=0.03, affine=True, track_running_stats=True)
      (act): SiLU(inplace=True)
    )
  )
)"]
	"backbone_b.4.m.1.m.0" [label="Bottleneck(
  (cv1): Conv(
    (conv): Conv2d(96, 96, kernel_size=(3, 3), stride=(1, 1), padding=(1, 1), bias=False)
    (bn): BatchNorm2d(96, eps=0.001, momentum=0.03, affine=True, track_running_stats=True)
    (act): SiLU(inplace=True)
  )
  (cv2): Conv(
    (conv): Conv2d(96, 96, kernel_size=(3, 3), stride=(1, 1), padding=(1, 1), bias=False)
    (bn): BatchNorm2d(96, eps=0.001, momentum=0.03, affine=True, track_running_stats=True)
    (act): SiLU(inplace=True)
  )
)"]
	"backbone_b.4.m.1.m.0.cv1" [label="Conv(
  (conv): Conv2d(96, 96, kernel_size=(3, 3), stride=(1, 1), padding=(1, 1), bias=False)
  (bn): BatchNorm2d(96, eps=0.001, momentum=0.03, affine=True, track_running_stats=True)
  (act): SiLU(inplace=True)
)"]
	"backbone_b.4.m.1.m.0.cv1.conv" [label="Conv2d(96, 96, kernel_size=(3, 3), stride=(1, 1), padding=(1, 1), bias=False)"]
	"backbone_b.4.m.1.m.0.cv1.bn" [label="BatchNorm2d(96, eps=0.001, momentum=0.03, affine=True, track_running_stats=True)"]
	"backbone_b.4.m.1.m.0.cv1.act" [label="SiLU(inplace=True)"]
	"backbone_b.4.m.1.m.0.cv2" [label="Conv(
  (conv): Conv2d(96, 96, kernel_size=(3, 3), stride=(1, 1), padding=(1, 1), bias=False)
  (bn): BatchNorm2d(96, eps=0.001, momentum=0.03, affine=True, track_running_stats=True)
  (act): SiLU(inplace=True)
)"]
	"backbone_b.4.m.1.m.0.cv2.conv" [label="Conv2d(96, 96, kernel_size=(3, 3), stride=(1, 1), padding=(1, 1), bias=False)"]
	"backbone_b.4.m.1.m.0.cv2.bn" [label="BatchNorm2d(96, eps=0.001, momentum=0.03, affine=True, track_running_stats=True)"]
	"backbone_b.4.m.1.m.0.cv2.act" [label="SiLU(inplace=True)"]
	"backbone_b.4.m.1.m.1" [label="Bottleneck(
  (cv1): Conv(
    (conv): Conv2d(96, 96, kernel_size=(3, 3), stride=(1, 1), padding=(1, 1), bias=False)
    (bn): BatchNorm2d(96, eps=0.001, momentum=0.03, affine=True, track_running_stats=True)
    (act): SiLU(inplace=True)
  )
  (cv2): Conv(
    (conv): Conv2d(96, 96, kernel_size=(3, 3), stride=(1, 1), padding=(1, 1), bias=False)
    (bn): BatchNorm2d(96, eps=0.001, momentum=0.03, affine=True, track_running_stats=True)
    (act): SiLU(inplace=True)
  )
)"]
	"backbone_b.4.m.1.m.1.cv1" [label="Conv(
  (conv): Conv2d(96, 96, kernel_size=(3, 3), stride=(1, 1), padding=(1, 1), bias=False)
  (bn): BatchNorm2d(96, eps=0.001, momentum=0.03, affine=True, track_running_stats=True)
  (act): SiLU(inplace=True)
)"]
	"backbone_b.4.m.1.m.1.cv1.conv" [label="Conv2d(96, 96, kernel_size=(3, 3), stride=(1, 1), padding=(1, 1), bias=False)"]
	"backbone_b.4.m.1.m.1.cv1.bn" [label="BatchNorm2d(96, eps=0.001, momentum=0.03, affine=True, track_running_stats=True)"]
	"backbone_b.4.m.1.m.1.cv1.act" [label="SiLU(inplace=True)"]
	"backbone_b.4.m.1.m.1.cv2" [label="Conv(
  (conv): Conv2d(96, 96, kernel_size=(3, 3), stride=(1, 1), padding=(1, 1), bias=False)
  (bn): BatchNorm2d(96, eps=0.001, momentum=0.03, affine=True, track_running_stats=True)
  (act): SiLU(inplace=True)
)"]
	"backbone_b.4.m.1.m.1.cv2.conv" [label="Conv2d(96, 96, kernel_size=(3, 3), stride=(1, 1), padding=(1, 1), bias=False)"]
	"backbone_b.4.m.1.m.1.cv2.bn" [label="BatchNorm2d(96, eps=0.001, momentum=0.03, affine=True, track_running_stats=True)"]
	"backbone_b.4.m.1.m.1.cv2.act" [label="SiLU(inplace=True)"]
	"backbone_b.5" [label="Conv(
  (conv): Conv2d(768, 768, kernel_size=(3, 3), stride=(2, 2), padding=(1, 1), bias=False)
  (bn): BatchNorm2d(768, eps=0.001, momentum=0.03, affine=True, track_running_stats=True)
  (act): SiLU(inplace=True)
)"]
	"backbone_b.5.conv" [label="Conv2d(768, 768, kernel_size=(3, 3), stride=(2, 2), padding=(1, 1), bias=False)"]
	"backbone_b.5.bn" [label="BatchNorm2d(768, eps=0.001, momentum=0.03, affine=True, track_running_stats=True)"]
	"backbone_b.5.act" [label="SiLU(inplace=True)"]
	"backbone_b.6" [label="C3k2(
  (cv1): Conv(
    (conv): Conv2d(768, 768, kernel_size=(1, 1), stride=(1, 1), bias=False)
    (bn): BatchNorm2d(768, eps=0.001, momentum=0.03, affine=True, track_running_stats=True)
    (act): SiLU(inplace=True)
  )
  (cv2): Conv(
    (conv): Conv2d(1536, 768, kernel_size=(1, 1), stride=(1, 1), bias=False)
    (bn): BatchNorm2d(768, eps=0.001, momentum=0.03, affine=True, track_running_stats=True)
    (act): SiLU(inplace=True)
  )
  (m): ModuleList(
    (0-1): 2 x C3k(
      (cv1): Conv(
        (conv): Conv2d(384, 192, kernel_size=(1, 1), stride=(1, 1), bias=False)
        (bn): BatchNorm2d(192, eps=0.001, momentum=0.03, affine=True, track_running_stats=True)
        (act): SiLU(inplace=True)
      )
      (cv2): Conv(
        (conv): Conv2d(384, 192, kernel_size=(1, 1), stride=(1, 1), bias=False)
        (bn): BatchNorm2d(192, eps=0.001, momentum=0.03, affine=True, track_running_stats=True)
        (act): SiLU(inplace=True)
      )
      (cv3): Conv(
        (conv): Conv2d(384, 384, kernel_size=(1, 1), stride=(1, 1), bias=False)
        (bn): BatchNorm2d(384, eps=0.001, momentum=0.03, affine=True, track_running_stats=True)
        (act): SiLU(inplace=True)
      )
      (m): Sequential(
        (0): Bottleneck(
          (cv1): Conv(
            (conv): Conv2d(192, 192, kernel_size=(3, 3), stride=(1, 1), padding=(1, 1), bias=False)
            (bn): BatchNorm2d(192, eps=0.001, momentum=0.03, affine=True, track_running_stats=True)
            (act): SiLU(inplace=True)
          )
          (cv2): Conv(
            (conv): Conv2d(192, 192, kernel_size=(3, 3), stride=(1, 1), padding=(1, 1), bias=False)
            (bn): BatchNorm2d(192, eps=0.001, momentum=0.03, affine=True, track_running_stats=True)
            (act): SiLU(inplace=True)
          )
        )
        (1): Bottleneck(
          (cv1): Conv(
            (conv): Conv2d(192, 192, kernel_size=(3, 3), stride=(1, 1), padding=(1, 1), bias=False)
            (bn): BatchNorm2d(192, eps=0.001, momentum=0.03, affine=True, track_running_stats=True)
            (act): SiLU(inplace=True)
          )
          (cv2): Conv(
            (conv): Conv2d(192, 192, kernel_size=(3, 3), stride=(1, 1), padding=(1, 1), bias=False)
            (bn): BatchNorm2d(192, eps=0.001, momentum=0.03, affine=True, track_running_stats=True)
            (act): SiLU(inplace=True)
          )
        )
      )
    )
  )
)"]
	"backbone_b.6.cv1" [label="Conv(
  (conv): Conv2d(768, 768, kernel_size=(1, 1), stride=(1, 1), bias=False)
  (bn): BatchNorm2d(768, eps=0.001, momentum=0.03, affine=True, track_running_stats=True)
  (act): SiLU(inplace=True)
)"]
	"backbone_b.6.cv1.conv" [label="Conv2d(768, 768, kernel_size=(1, 1), stride=(1, 1), bias=False)"]
	"backbone_b.6.cv1.bn" [label="BatchNorm2d(768, eps=0.001, momentum=0.03, affine=True, track_running_stats=True)"]
	"backbone_b.6.cv1.act" [label="SiLU(inplace=True)"]
	"backbone_b.6.cv2" [label="Conv(
  (conv): Conv2d(1536, 768, kernel_size=(1, 1), stride=(1, 1), bias=False)
  (bn): BatchNorm2d(768, eps=0.001, momentum=0.03, affine=True, track_running_stats=True)
  (act): SiLU(inplace=True)
)"]
	"backbone_b.6.cv2.conv" [label="Conv2d(1536, 768, kernel_size=(1, 1), stride=(1, 1), bias=False)"]
	"backbone_b.6.cv2.bn" [label="BatchNorm2d(768, eps=0.001, momentum=0.03, affine=True, track_running_stats=True)"]
	"backbone_b.6.cv2.act" [label="SiLU(inplace=True)"]
	"backbone_b.6.m" [label="ModuleList(
  (0-1): 2 x C3k(
    (cv1): Conv(
      (conv): Conv2d(384, 192, kernel_size=(1, 1), stride=(1, 1), bias=False)
      (bn): BatchNorm2d(192, eps=0.001, momentum=0.03, affine=True, track_running_stats=True)
      (act): SiLU(inplace=True)
    )
    (cv2): Conv(
      (conv): Conv2d(384, 192, kernel_size=(1, 1), stride=(1, 1), bias=False)
      (bn): BatchNorm2d(192, eps=0.001, momentum=0.03, affine=True, track_running_stats=True)
      (act): SiLU(inplace=True)
    )
    (cv3): Conv(
      (conv): Conv2d(384, 384, kernel_size=(1, 1), stride=(1, 1), bias=False)
      (bn): BatchNorm2d(384, eps=0.001, momentum=0.03, affine=True, track_running_stats=True)
      (act): SiLU(inplace=True)
    )
    (m): Sequential(
      (0): Bottleneck(
        (cv1): Conv(
          (conv): Conv2d(192, 192, kernel_size=(3, 3), stride=(1, 1), padding=(1, 1), bias=False)
          (bn): BatchNorm2d(192, eps=0.001, momentum=0.03, affine=True, track_running_stats=True)
          (act): SiLU(inplace=True)
        )
        (cv2): Conv(
          (conv): Conv2d(192, 192, kernel_size=(3, 3), stride=(1, 1), padding=(1, 1), bias=False)
          (bn): BatchNorm2d(192, eps=0.001, momentum=0.03, affine=True, track_running_stats=True)
          (act): SiLU(inplace=True)
        )
      )
      (1): Bottleneck(
        (cv1): Conv(
          (conv): Conv2d(192, 192, kernel_size=(3, 3), stride=(1, 1), padding=(1, 1), bias=False)
          (bn): BatchNorm2d(192, eps=0.001, momentum=0.03, affine=True, track_running_stats=True)
          (act): SiLU(inplace=True)
        )
        (cv2): Conv(
          (conv): Conv2d(192, 192, kernel_size=(3, 3), stride=(1, 1), padding=(1, 1), bias=False)
          (bn): BatchNorm2d(192, eps=0.001, momentum=0.03, affine=True, track_running_stats=True)
          (act): SiLU(inplace=True)
        )
      )
    )
  )
)"]
	"backbone_b.6.m.0" [label="C3k(
  (cv1): Conv(
    (conv): Conv2d(384, 192, kernel_size=(1, 1), stride=(1, 1), bias=False)
    (bn): BatchNorm2d(192, eps=0.001, momentum=0.03, affine=True, track_running_stats=True)
    (act): SiLU(inplace=True)
  )
  (cv2): Conv(
    (conv): Conv2d(384, 192, kernel_size=(1, 1), stride=(1, 1), bias=False)
    (bn): BatchNorm2d(192, eps=0.001, momentum=0.03, affine=True, track_running_stats=True)
    (act): SiLU(inplace=True)
  )
  (cv3): Conv(
    (conv): Conv2d(384, 384, kernel_size=(1, 1), stride=(1, 1), bias=False)
    (bn): BatchNorm2d(384, eps=0.001, momentum=0.03, affine=True, track_running_stats=True)
    (act): SiLU(inplace=True)
  )
  (m): Sequential(
    (0): Bottleneck(
      (cv1): Conv(
        (conv): Conv2d(192, 192, kernel_size=(3, 3), stride=(1, 1), padding=(1, 1), bias=False)
        (bn): BatchNorm2d(192, eps=0.001, momentum=0.03, affine=True, track_running_stats=True)
        (act): SiLU(inplace=True)
      )
      (cv2): Conv(
        (conv): Conv2d(192, 192, kernel_size=(3, 3), stride=(1, 1), padding=(1, 1), bias=False)
        (bn): BatchNorm2d(192, eps=0.001, momentum=0.03, affine=True, track_running_stats=True)
        (act): SiLU(inplace=True)
      )
    )
    (1): Bottleneck(
      (cv1): Conv(
        (conv): Conv2d(192, 192, kernel_size=(3, 3), stride=(1, 1), padding=(1, 1), bias=False)
        (bn): BatchNorm2d(192, eps=0.001, momentum=0.03, affine=True, track_running_stats=True)
        (act): SiLU(inplace=True)
      )
      (cv2): Conv(
        (conv): Conv2d(192, 192, kernel_size=(3, 3), stride=(1, 1), padding=(1, 1), bias=False)
        (bn): BatchNorm2d(192, eps=0.001, momentum=0.03, affine=True, track_running_stats=True)
        (act): SiLU(inplace=True)
      )
    )
  )
)"]
	"backbone_b.6.m.0.cv1" [label="Conv(
  (conv): Conv2d(384, 192, kernel_size=(1, 1), stride=(1, 1), bias=False)
  (bn): BatchNorm2d(192, eps=0.001, momentum=0.03, affine=True, track_running_stats=True)
  (act): SiLU(inplace=True)
)"]
	"backbone_b.6.m.0.cv1.conv" [label="Conv2d(384, 192, kernel_size=(1, 1), stride=(1, 1), bias=False)"]
	"backbone_b.6.m.0.cv1.bn" [label="BatchNorm2d(192, eps=0.001, momentum=0.03, affine=True, track_running_stats=True)"]
	"backbone_b.6.m.0.cv1.act" [label="SiLU(inplace=True)"]
	"backbone_b.6.m.0.cv2" [label="Conv(
  (conv): Conv2d(384, 192, kernel_size=(1, 1), stride=(1, 1), bias=False)
  (bn): BatchNorm2d(192, eps=0.001, momentum=0.03, affine=True, track_running_stats=True)
  (act): SiLU(inplace=True)
)"]
	"backbone_b.6.m.0.cv2.conv" [label="Conv2d(384, 192, kernel_size=(1, 1), stride=(1, 1), bias=False)"]
	"backbone_b.6.m.0.cv2.bn" [label="BatchNorm2d(192, eps=0.001, momentum=0.03, affine=True, track_running_stats=True)"]
	"backbone_b.6.m.0.cv2.act" [label="SiLU(inplace=True)"]
	"backbone_b.6.m.0.cv3" [label="Conv(
  (conv): Conv2d(384, 384, kernel_size=(1, 1), stride=(1, 1), bias=False)
  (bn): BatchNorm2d(384, eps=0.001, momentum=0.03, affine=True, track_running_stats=True)
  (act): SiLU(inplace=True)
)"]
	"backbone_b.6.m.0.cv3.conv" [label="Conv2d(384, 384, kernel_size=(1, 1), stride=(1, 1), bias=False)"]
	"backbone_b.6.m.0.cv3.bn" [label="BatchNorm2d(384, eps=0.001, momentum=0.03, affine=True, track_running_stats=True)"]
	"backbone_b.6.m.0.cv3.act" [label="SiLU(inplace=True)"]
	"backbone_b.6.m.0.m" [label="Sequential(
  (0): Bottleneck(
    (cv1): Conv(
      (conv): Conv2d(192, 192, kernel_size=(3, 3), stride=(1, 1), padding=(1, 1), bias=False)
      (bn): BatchNorm2d(192, eps=0.001, momentum=0.03, affine=True, track_running_stats=True)
      (act): SiLU(inplace=True)
    )
    (cv2): Conv(
      (conv): Conv2d(192, 192, kernel_size=(3, 3), stride=(1, 1), padding=(1, 1), bias=False)
      (bn): BatchNorm2d(192, eps=0.001, momentum=0.03, affine=True, track_running_stats=True)
      (act): SiLU(inplace=True)
    )
  )
  (1): Bottleneck(
    (cv1): Conv(
      (conv): Conv2d(192, 192, kernel_size=(3, 3), stride=(1, 1), padding=(1, 1), bias=False)
      (bn): BatchNorm2d(192, eps=0.001, momentum=0.03, affine=True, track_running_stats=True)
      (act): SiLU(inplace=True)
    )
    (cv2): Conv(
      (conv): Conv2d(192, 192, kernel_size=(3, 3), stride=(1, 1), padding=(1, 1), bias=False)
      (bn): BatchNorm2d(192, eps=0.001, momentum=0.03, affine=True, track_running_stats=True)
      (act): SiLU(inplace=True)
    )
  )
)"]
	"backbone_b.6.m.0.m.0" [label="Bottleneck(
  (cv1): Conv(
    (conv): Conv2d(192, 192, kernel_size=(3, 3), stride=(1, 1), padding=(1, 1), bias=False)
    (bn): BatchNorm2d(192, eps=0.001, momentum=0.03, affine=True, track_running_stats=True)
    (act): SiLU(inplace=True)
  )
  (cv2): Conv(
    (conv): Conv2d(192, 192, kernel_size=(3, 3), stride=(1, 1), padding=(1, 1), bias=False)
    (bn): BatchNorm2d(192, eps=0.001, momentum=0.03, affine=True, track_running_stats=True)
    (act): SiLU(inplace=True)
  )
)"]
	"backbone_b.6.m.0.m.0.cv1" [label="Conv(
  (conv): Conv2d(192, 192, kernel_size=(3, 3), stride=(1, 1), padding=(1, 1), bias=False)
  (bn): BatchNorm2d(192, eps=0.001, momentum=0.03, affine=True, track_running_stats=True)
  (act): SiLU(inplace=True)
)"]
	"backbone_b.6.m.0.m.0.cv1.conv" [label="Conv2d(192, 192, kernel_size=(3, 3), stride=(1, 1), padding=(1, 1), bias=False)"]
	"backbone_b.6.m.0.m.0.cv1.bn" [label="BatchNorm2d(192, eps=0.001, momentum=0.03, affine=True, track_running_stats=True)"]
	"backbone_b.6.m.0.m.0.cv1.act" [label="SiLU(inplace=True)"]
	"backbone_b.6.m.0.m.0.cv2" [label="Conv(
  (conv): Conv2d(192, 192, kernel_size=(3, 3), stride=(1, 1), padding=(1, 1), bias=False)
  (bn): BatchNorm2d(192, eps=0.001, momentum=0.03, affine=True, track_running_stats=True)
  (act): SiLU(inplace=True)
)"]
	"backbone_b.6.m.0.m.0.cv2.conv" [label="Conv2d(192, 192, kernel_size=(3, 3), stride=(1, 1), padding=(1, 1), bias=False)"]
	"backbone_b.6.m.0.m.0.cv2.bn" [label="BatchNorm2d(192, eps=0.001, momentum=0.03, affine=True, track_running_stats=True)"]
	"backbone_b.6.m.0.m.0.cv2.act" [label="SiLU(inplace=True)"]
	"backbone_b.6.m.0.m.1" [label="Bottleneck(
  (cv1): Conv(
    (conv): Conv2d(192, 192, kernel_size=(3, 3), stride=(1, 1), padding=(1, 1), bias=False)
    (bn): BatchNorm2d(192, eps=0.001, momentum=0.03, affine=True, track_running_stats=True)
    (act): SiLU(inplace=True)
  )
  (cv2): Conv(
    (conv): Conv2d(192, 192, kernel_size=(3, 3), stride=(1, 1), padding=(1, 1), bias=False)
    (bn): BatchNorm2d(192, eps=0.001, momentum=0.03, affine=True, track_running_stats=True)
    (act): SiLU(inplace=True)
  )
)"]
	"backbone_b.6.m.0.m.1.cv1" [label="Conv(
  (conv): Conv2d(192, 192, kernel_size=(3, 3), stride=(1, 1), padding=(1, 1), bias=False)
  (bn): BatchNorm2d(192, eps=0.001, momentum=0.03, affine=True, track_running_stats=True)
  (act): SiLU(inplace=True)
)"]
	"backbone_b.6.m.0.m.1.cv1.conv" [label="Conv2d(192, 192, kernel_size=(3, 3), stride=(1, 1), padding=(1, 1), bias=False)"]
	"backbone_b.6.m.0.m.1.cv1.bn" [label="BatchNorm2d(192, eps=0.001, momentum=0.03, affine=True, track_running_stats=True)"]
	"backbone_b.6.m.0.m.1.cv1.act" [label="SiLU(inplace=True)"]
	"backbone_b.6.m.0.m.1.cv2" [label="Conv(
  (conv): Conv2d(192, 192, kernel_size=(3, 3), stride=(1, 1), padding=(1, 1), bias=False)
  (bn): BatchNorm2d(192, eps=0.001, momentum=0.03, affine=True, track_running_stats=True)
  (act): SiLU(inplace=True)
)"]
	"backbone_b.6.m.0.m.1.cv2.conv" [label="Conv2d(192, 192, kernel_size=(3, 3), stride=(1, 1), padding=(1, 1), bias=False)"]
	"backbone_b.6.m.0.m.1.cv2.bn" [label="BatchNorm2d(192, eps=0.001, momentum=0.03, affine=True, track_running_stats=True)"]
	"backbone_b.6.m.0.m.1.cv2.act" [label="SiLU(inplace=True)"]
	"backbone_b.6.m.1" [label="C3k(
  (cv1): Conv(
    (conv): Conv2d(384, 192, kernel_size=(1, 1), stride=(1, 1), bias=False)
    (bn): BatchNorm2d(192, eps=0.001, momentum=0.03, affine=True, track_running_stats=True)
    (act): SiLU(inplace=True)
  )
  (cv2): Conv(
    (conv): Conv2d(384, 192, kernel_size=(1, 1), stride=(1, 1), bias=False)
    (bn): BatchNorm2d(192, eps=0.001, momentum=0.03, affine=True, track_running_stats=True)
    (act): SiLU(inplace=True)
  )
  (cv3): Conv(
    (conv): Conv2d(384, 384, kernel_size=(1, 1), stride=(1, 1), bias=False)
    (bn): BatchNorm2d(384, eps=0.001, momentum=0.03, affine=True, track_running_stats=True)
    (act): SiLU(inplace=True)
  )
  (m): Sequential(
    (0): Bottleneck(
      (cv1): Conv(
        (conv): Conv2d(192, 192, kernel_size=(3, 3), stride=(1, 1), padding=(1, 1), bias=False)
        (bn): BatchNorm2d(192, eps=0.001, momentum=0.03, affine=True, track_running_stats=True)
        (act): SiLU(inplace=True)
      )
      (cv2): Conv(
        (conv): Conv2d(192, 192, kernel_size=(3, 3), stride=(1, 1), padding=(1, 1), bias=False)
        (bn): BatchNorm2d(192, eps=0.001, momentum=0.03, affine=True, track_running_stats=True)
        (act): SiLU(inplace=True)
      )
    )
    (1): Bottleneck(
      (cv1): Conv(
        (conv): Conv2d(192, 192, kernel_size=(3, 3), stride=(1, 1), padding=(1, 1), bias=False)
        (bn): BatchNorm2d(192, eps=0.001, momentum=0.03, affine=True, track_running_stats=True)
        (act): SiLU(inplace=True)
      )
      (cv2): Conv(
        (conv): Conv2d(192, 192, kernel_size=(3, 3), stride=(1, 1), padding=(1, 1), bias=False)
        (bn): BatchNorm2d(192, eps=0.001, momentum=0.03, affine=True, track_running_stats=True)
        (act): SiLU(inplace=True)
      )
    )
  )
)"]
	"backbone_b.6.m.1.cv1" [label="Conv(
  (conv): Conv2d(384, 192, kernel_size=(1, 1), stride=(1, 1), bias=False)
  (bn): BatchNorm2d(192, eps=0.001, momentum=0.03, affine=True, track_running_stats=True)
  (act): SiLU(inplace=True)
)"]
	"backbone_b.6.m.1.cv1.conv" [label="Conv2d(384, 192, kernel_size=(1, 1), stride=(1, 1), bias=False)"]
	"backbone_b.6.m.1.cv1.bn" [label="BatchNorm2d(192, eps=0.001, momentum=0.03, affine=True, track_running_stats=True)"]
	"backbone_b.6.m.1.cv1.act" [label="SiLU(inplace=True)"]
	"backbone_b.6.m.1.cv2" [label="Conv(
  (conv): Conv2d(384, 192, kernel_size=(1, 1), stride=(1, 1), bias=False)
  (bn): BatchNorm2d(192, eps=0.001, momentum=0.03, affine=True, track_running_stats=True)
  (act): SiLU(inplace=True)
)"]
	"backbone_b.6.m.1.cv2.conv" [label="Conv2d(384, 192, kernel_size=(1, 1), stride=(1, 1), bias=False)"]
	"backbone_b.6.m.1.cv2.bn" [label="BatchNorm2d(192, eps=0.001, momentum=0.03, affine=True, track_running_stats=True)"]
	"backbone_b.6.m.1.cv2.act" [label="SiLU(inplace=True)"]
	"backbone_b.6.m.1.cv3" [label="Conv(
  (conv): Conv2d(384, 384, kernel_size=(1, 1), stride=(1, 1), bias=False)
  (bn): BatchNorm2d(384, eps=0.001, momentum=0.03, affine=True, track_running_stats=True)
  (act): SiLU(inplace=True)
)"]
	"backbone_b.6.m.1.cv3.conv" [label="Conv2d(384, 384, kernel_size=(1, 1), stride=(1, 1), bias=False)"]
	"backbone_b.6.m.1.cv3.bn" [label="BatchNorm2d(384, eps=0.001, momentum=0.03, affine=True, track_running_stats=True)"]
	"backbone_b.6.m.1.cv3.act" [label="SiLU(inplace=True)"]
	"backbone_b.6.m.1.m" [label="Sequential(
  (0): Bottleneck(
    (cv1): Conv(
      (conv): Conv2d(192, 192, kernel_size=(3, 3), stride=(1, 1), padding=(1, 1), bias=False)
      (bn): BatchNorm2d(192, eps=0.001, momentum=0.03, affine=True, track_running_stats=True)
      (act): SiLU(inplace=True)
    )
    (cv2): Conv(
      (conv): Conv2d(192, 192, kernel_size=(3, 3), stride=(1, 1), padding=(1, 1), bias=False)
      (bn): BatchNorm2d(192, eps=0.001, momentum=0.03, affine=True, track_running_stats=True)
      (act): SiLU(inplace=True)
    )
  )
  (1): Bottleneck(
    (cv1): Conv(
      (conv): Conv2d(192, 192, kernel_size=(3, 3), stride=(1, 1), padding=(1, 1), bias=False)
      (bn): BatchNorm2d(192, eps=0.001, momentum=0.03, affine=True, track_running_stats=True)
      (act): SiLU(inplace=True)
    )
    (cv2): Conv(
      (conv): Conv2d(192, 192, kernel_size=(3, 3), stride=(1, 1), padding=(1, 1), bias=False)
      (bn): BatchNorm2d(192, eps=0.001, momentum=0.03, affine=True, track_running_stats=True)
      (act): SiLU(inplace=True)
    )
  )
)"]
	"backbone_b.6.m.1.m.0" [label="Bottleneck(
  (cv1): Conv(
    (conv): Conv2d(192, 192, kernel_size=(3, 3), stride=(1, 1), padding=(1, 1), bias=False)
    (bn): BatchNorm2d(192, eps=0.001, momentum=0.03, affine=True, track_running_stats=True)
    (act): SiLU(inplace=True)
  )
  (cv2): Conv(
    (conv): Conv2d(192, 192, kernel_size=(3, 3), stride=(1, 1), padding=(1, 1), bias=False)
    (bn): BatchNorm2d(192, eps=0.001, momentum=0.03, affine=True, track_running_stats=True)
    (act): SiLU(inplace=True)
  )
)"]
	"backbone_b.6.m.1.m.0.cv1" [label="Conv(
  (conv): Conv2d(192, 192, kernel_size=(3, 3), stride=(1, 1), padding=(1, 1), bias=False)
  (bn): BatchNorm2d(192, eps=0.001, momentum=0.03, affine=True, track_running_stats=True)
  (act): SiLU(inplace=True)
)"]
	"backbone_b.6.m.1.m.0.cv1.conv" [label="Conv2d(192, 192, kernel_size=(3, 3), stride=(1, 1), padding=(1, 1), bias=False)"]
	"backbone_b.6.m.1.m.0.cv1.bn" [label="BatchNorm2d(192, eps=0.001, momentum=0.03, affine=True, track_running_stats=True)"]
	"backbone_b.6.m.1.m.0.cv1.act" [label="SiLU(inplace=True)"]
	"backbone_b.6.m.1.m.0.cv2" [label="Conv(
  (conv): Conv2d(192, 192, kernel_size=(3, 3), stride=(1, 1), padding=(1, 1), bias=False)
  (bn): BatchNorm2d(192, eps=0.001, momentum=0.03, affine=True, track_running_stats=True)
  (act): SiLU(inplace=True)
)"]
	"backbone_b.6.m.1.m.0.cv2.conv" [label="Conv2d(192, 192, kernel_size=(3, 3), stride=(1, 1), padding=(1, 1), bias=False)"]
	"backbone_b.6.m.1.m.0.cv2.bn" [label="BatchNorm2d(192, eps=0.001, momentum=0.03, affine=True, track_running_stats=True)"]
	"backbone_b.6.m.1.m.0.cv2.act" [label="SiLU(inplace=True)"]
	"backbone_b.6.m.1.m.1" [label="Bottleneck(
  (cv1): Conv(
    (conv): Conv2d(192, 192, kernel_size=(3, 3), stride=(1, 1), padding=(1, 1), bias=False)
    (bn): BatchNorm2d(192, eps=0.001, momentum=0.03, affine=True, track_running_stats=True)
    (act): SiLU(inplace=True)
  )
  (cv2): Conv(
    (conv): Conv2d(192, 192, kernel_size=(3, 3), stride=(1, 1), padding=(1, 1), bias=False)
    (bn): BatchNorm2d(192, eps=0.001, momentum=0.03, affine=True, track_running_stats=True)
    (act): SiLU(inplace=True)
  )
)"]
	"backbone_b.6.m.1.m.1.cv1" [label="Conv(
  (conv): Conv2d(192, 192, kernel_size=(3, 3), stride=(1, 1), padding=(1, 1), bias=False)
  (bn): BatchNorm2d(192, eps=0.001, momentum=0.03, affine=True, track_running_stats=True)
  (act): SiLU(inplace=True)
)"]
	"backbone_b.6.m.1.m.1.cv1.conv" [label="Conv2d(192, 192, kernel_size=(3, 3), stride=(1, 1), padding=(1, 1), bias=False)"]
	"backbone_b.6.m.1.m.1.cv1.bn" [label="BatchNorm2d(192, eps=0.001, momentum=0.03, affine=True, track_running_stats=True)"]
	"backbone_b.6.m.1.m.1.cv1.act" [label="SiLU(inplace=True)"]
	"backbone_b.6.m.1.m.1.cv2" [label="Conv(
  (conv): Conv2d(192, 192, kernel_size=(3, 3), stride=(1, 1), padding=(1, 1), bias=False)
  (bn): BatchNorm2d(192, eps=0.001, momentum=0.03, affine=True, track_running_stats=True)
  (act): SiLU(inplace=True)
)"]
	"backbone_b.6.m.1.m.1.cv2.conv" [label="Conv2d(192, 192, kernel_size=(3, 3), stride=(1, 1), padding=(1, 1), bias=False)"]
	"backbone_b.6.m.1.m.1.cv2.bn" [label="BatchNorm2d(192, eps=0.001, momentum=0.03, affine=True, track_running_stats=True)"]
	"backbone_b.6.m.1.m.1.cv2.act" [label="SiLU(inplace=True)"]
	"backbone_b.7" [label="Conv(
  (conv): Conv2d(768, 768, kernel_size=(3, 3), stride=(2, 2), padding=(1, 1), bias=False)
  (bn): BatchNorm2d(768, eps=0.001, momentum=0.03, affine=True, track_running_stats=True)
  (act): SiLU(inplace=True)
)"]
	"backbone_b.7.conv" [label="Conv2d(768, 768, kernel_size=(3, 3), stride=(2, 2), padding=(1, 1), bias=False)"]
	"backbone_b.7.bn" [label="BatchNorm2d(768, eps=0.001, momentum=0.03, affine=True, track_running_stats=True)"]
	"backbone_b.7.act" [label="SiLU(inplace=True)"]
	"backbone_b.8" [label="C3k2(
  (cv1): Conv(
    (conv): Conv2d(768, 768, kernel_size=(1, 1), stride=(1, 1), bias=False)
    (bn): BatchNorm2d(768, eps=0.001, momentum=0.03, affine=True, track_running_stats=True)
    (act): SiLU(inplace=True)
  )
  (cv2): Conv(
    (conv): Conv2d(1536, 768, kernel_size=(1, 1), stride=(1, 1), bias=False)
    (bn): BatchNorm2d(768, eps=0.001, momentum=0.03, affine=True, track_running_stats=True)
    (act): SiLU(inplace=True)
  )
  (m): ModuleList(
    (0-1): 2 x C3k(
      (cv1): Conv(
        (conv): Conv2d(384, 192, kernel_size=(1, 1), stride=(1, 1), bias=False)
        (bn): BatchNorm2d(192, eps=0.001, momentum=0.03, affine=True, track_running_stats=True)
        (act): SiLU(inplace=True)
      )
      (cv2): Conv(
        (conv): Conv2d(384, 192, kernel_size=(1, 1), stride=(1, 1), bias=False)
        (bn): BatchNorm2d(192, eps=0.001, momentum=0.03, affine=True, track_running_stats=True)
        (act): SiLU(inplace=True)
      )
      (cv3): Conv(
        (conv): Conv2d(384, 384, kernel_size=(1, 1), stride=(1, 1), bias=False)
        (bn): BatchNorm2d(384, eps=0.001, momentum=0.03, affine=True, track_running_stats=True)
        (act): SiLU(inplace=True)
      )
      (m): Sequential(
        (0): Bottleneck(
          (cv1): Conv(
            (conv): Conv2d(192, 192, kernel_size=(3, 3), stride=(1, 1), padding=(1, 1), bias=False)
            (bn): BatchNorm2d(192, eps=0.001, momentum=0.03, affine=True, track_running_stats=True)
            (act): SiLU(inplace=True)
          )
          (cv2): Conv(
            (conv): Conv2d(192, 192, kernel_size=(3, 3), stride=(1, 1), padding=(1, 1), bias=False)
            (bn): BatchNorm2d(192, eps=0.001, momentum=0.03, affine=True, track_running_stats=True)
            (act): SiLU(inplace=True)
          )
        )
        (1): Bottleneck(
          (cv1): Conv(
            (conv): Conv2d(192, 192, kernel_size=(3, 3), stride=(1, 1), padding=(1, 1), bias=False)
            (bn): BatchNorm2d(192, eps=0.001, momentum=0.03, affine=True, track_running_stats=True)
            (act): SiLU(inplace=True)
          )
          (cv2): Conv(
            (conv): Conv2d(192, 192, kernel_size=(3, 3), stride=(1, 1), padding=(1, 1), bias=False)
            (bn): BatchNorm2d(192, eps=0.001, momentum=0.03, affine=True, track_running_stats=True)
            (act): SiLU(inplace=True)
          )
        )
      )
    )
  )
)"]
	"backbone_b.8.cv1" [label="Conv(
  (conv): Conv2d(768, 768, kernel_size=(1, 1), stride=(1, 1), bias=False)
  (bn): BatchNorm2d(768, eps=0.001, momentum=0.03, affine=True, track_running_stats=True)
  (act): SiLU(inplace=True)
)"]
	"backbone_b.8.cv1.conv" [label="Conv2d(768, 768, kernel_size=(1, 1), stride=(1, 1), bias=False)"]
	"backbone_b.8.cv1.bn" [label="BatchNorm2d(768, eps=0.001, momentum=0.03, affine=True, track_running_stats=True)"]
	"backbone_b.8.cv1.act" [label="SiLU(inplace=True)"]
	"backbone_b.8.cv2" [label="Conv(
  (conv): Conv2d(1536, 768, kernel_size=(1, 1), stride=(1, 1), bias=False)
  (bn): BatchNorm2d(768, eps=0.001, momentum=0.03, affine=True, track_running_stats=True)
  (act): SiLU(inplace=True)
)"]
	"backbone_b.8.cv2.conv" [label="Conv2d(1536, 768, kernel_size=(1, 1), stride=(1, 1), bias=False)"]
	"backbone_b.8.cv2.bn" [label="BatchNorm2d(768, eps=0.001, momentum=0.03, affine=True, track_running_stats=True)"]
	"backbone_b.8.cv2.act" [label="SiLU(inplace=True)"]
	"backbone_b.8.m" [label="ModuleList(
  (0-1): 2 x C3k(
    (cv1): Conv(
      (conv): Conv2d(384, 192, kernel_size=(1, 1), stride=(1, 1), bias=False)
      (bn): BatchNorm2d(192, eps=0.001, momentum=0.03, affine=True, track_running_stats=True)
      (act): SiLU(inplace=True)
    )
    (cv2): Conv(
      (conv): Conv2d(384, 192, kernel_size=(1, 1), stride=(1, 1), bias=False)
      (bn): BatchNorm2d(192, eps=0.001, momentum=0.03, affine=True, track_running_stats=True)
      (act): SiLU(inplace=True)
    )
    (cv3): Conv(
      (conv): Conv2d(384, 384, kernel_size=(1, 1), stride=(1, 1), bias=False)
      (bn): BatchNorm2d(384, eps=0.001, momentum=0.03, affine=True, track_running_stats=True)
      (act): SiLU(inplace=True)
    )
    (m): Sequential(
      (0): Bottleneck(
        (cv1): Conv(
          (conv): Conv2d(192, 192, kernel_size=(3, 3), stride=(1, 1), padding=(1, 1), bias=False)
          (bn): BatchNorm2d(192, eps=0.001, momentum=0.03, affine=True, track_running_stats=True)
          (act): SiLU(inplace=True)
        )
        (cv2): Conv(
          (conv): Conv2d(192, 192, kernel_size=(3, 3), stride=(1, 1), padding=(1, 1), bias=False)
          (bn): BatchNorm2d(192, eps=0.001, momentum=0.03, affine=True, track_running_stats=True)
          (act): SiLU(inplace=True)
        )
      )
      (1): Bottleneck(
        (cv1): Conv(
          (conv): Conv2d(192, 192, kernel_size=(3, 3), stride=(1, 1), padding=(1, 1), bias=False)
          (bn): BatchNorm2d(192, eps=0.001, momentum=0.03, affine=True, track_running_stats=True)
          (act): SiLU(inplace=True)
        )
        (cv2): Conv(
          (conv): Conv2d(192, 192, kernel_size=(3, 3), stride=(1, 1), padding=(1, 1), bias=False)
          (bn): BatchNorm2d(192, eps=0.001, momentum=0.03, affine=True, track_running_stats=True)
          (act): SiLU(inplace=True)
        )
      )
    )
  )
)"]
	"backbone_b.8.m.0" [label="C3k(
  (cv1): Conv(
    (conv): Conv2d(384, 192, kernel_size=(1, 1), stride=(1, 1), bias=False)
    (bn): BatchNorm2d(192, eps=0.001, momentum=0.03, affine=True, track_running_stats=True)
    (act): SiLU(inplace=True)
  )
  (cv2): Conv(
    (conv): Conv2d(384, 192, kernel_size=(1, 1), stride=(1, 1), bias=False)
    (bn): BatchNorm2d(192, eps=0.001, momentum=0.03, affine=True, track_running_stats=True)
    (act): SiLU(inplace=True)
  )
  (cv3): Conv(
    (conv): Conv2d(384, 384, kernel_size=(1, 1), stride=(1, 1), bias=False)
    (bn): BatchNorm2d(384, eps=0.001, momentum=0.03, affine=True, track_running_stats=True)
    (act): SiLU(inplace=True)
  )
  (m): Sequential(
    (0): Bottleneck(
      (cv1): Conv(
        (conv): Conv2d(192, 192, kernel_size=(3, 3), stride=(1, 1), padding=(1, 1), bias=False)
        (bn): BatchNorm2d(192, eps=0.001, momentum=0.03, affine=True, track_running_stats=True)
        (act): SiLU(inplace=True)
      )
      (cv2): Conv(
        (conv): Conv2d(192, 192, kernel_size=(3, 3), stride=(1, 1), padding=(1, 1), bias=False)
        (bn): BatchNorm2d(192, eps=0.001, momentum=0.03, affine=True, track_running_stats=True)
        (act): SiLU(inplace=True)
      )
    )
    (1): Bottleneck(
      (cv1): Conv(
        (conv): Conv2d(192, 192, kernel_size=(3, 3), stride=(1, 1), padding=(1, 1), bias=False)
        (bn): BatchNorm2d(192, eps=0.001, momentum=0.03, affine=True, track_running_stats=True)
        (act): SiLU(inplace=True)
      )
      (cv2): Conv(
        (conv): Conv2d(192, 192, kernel_size=(3, 3), stride=(1, 1), padding=(1, 1), bias=False)
        (bn): BatchNorm2d(192, eps=0.001, momentum=0.03, affine=True, track_running_stats=True)
        (act): SiLU(inplace=True)
      )
    )
  )
)"]
	"backbone_b.8.m.0.cv1" [label="Conv(
  (conv): Conv2d(384, 192, kernel_size=(1, 1), stride=(1, 1), bias=False)
  (bn): BatchNorm2d(192, eps=0.001, momentum=0.03, affine=True, track_running_stats=True)
  (act): SiLU(inplace=True)
)"]
	"backbone_b.8.m.0.cv1.conv" [label="Conv2d(384, 192, kernel_size=(1, 1), stride=(1, 1), bias=False)"]
	"backbone_b.8.m.0.cv1.bn" [label="BatchNorm2d(192, eps=0.001, momentum=0.03, affine=True, track_running_stats=True)"]
	"backbone_b.8.m.0.cv1.act" [label="SiLU(inplace=True)"]
	"backbone_b.8.m.0.cv2" [label="Conv(
  (conv): Conv2d(384, 192, kernel_size=(1, 1), stride=(1, 1), bias=False)
  (bn): BatchNorm2d(192, eps=0.001, momentum=0.03, affine=True, track_running_stats=True)
  (act): SiLU(inplace=True)
)"]
	"backbone_b.8.m.0.cv2.conv" [label="Conv2d(384, 192, kernel_size=(1, 1), stride=(1, 1), bias=False)"]
	"backbone_b.8.m.0.cv2.bn" [label="BatchNorm2d(192, eps=0.001, momentum=0.03, affine=True, track_running_stats=True)"]
	"backbone_b.8.m.0.cv2.act" [label="SiLU(inplace=True)"]
	"backbone_b.8.m.0.cv3" [label="Conv(
  (conv): Conv2d(384, 384, kernel_size=(1, 1), stride=(1, 1), bias=False)
  (bn): BatchNorm2d(384, eps=0.001, momentum=0.03, affine=True, track_running_stats=True)
  (act): SiLU(inplace=True)
)"]
	"backbone_b.8.m.0.cv3.conv" [label="Conv2d(384, 384, kernel_size=(1, 1), stride=(1, 1), bias=False)"]
	"backbone_b.8.m.0.cv3.bn" [label="BatchNorm2d(384, eps=0.001, momentum=0.03, affine=True, track_running_stats=True)"]
	"backbone_b.8.m.0.cv3.act" [label="SiLU(inplace=True)"]
	"backbone_b.8.m.0.m" [label="Sequential(
  (0): Bottleneck(
    (cv1): Conv(
      (conv): Conv2d(192, 192, kernel_size=(3, 3), stride=(1, 1), padding=(1, 1), bias=False)
      (bn): BatchNorm2d(192, eps=0.001, momentum=0.03, affine=True, track_running_stats=True)
      (act): SiLU(inplace=True)
    )
    (cv2): Conv(
      (conv): Conv2d(192, 192, kernel_size=(3, 3), stride=(1, 1), padding=(1, 1), bias=False)
      (bn): BatchNorm2d(192, eps=0.001, momentum=0.03, affine=True, track_running_stats=True)
      (act): SiLU(inplace=True)
    )
  )
  (1): Bottleneck(
    (cv1): Conv(
      (conv): Conv2d(192, 192, kernel_size=(3, 3), stride=(1, 1), padding=(1, 1), bias=False)
      (bn): BatchNorm2d(192, eps=0.001, momentum=0.03, affine=True, track_running_stats=True)
      (act): SiLU(inplace=True)
    )
    (cv2): Conv(
      (conv): Conv2d(192, 192, kernel_size=(3, 3), stride=(1, 1), padding=(1, 1), bias=False)
      (bn): BatchNorm2d(192, eps=0.001, momentum=0.03, affine=True, track_running_stats=True)
      (act): SiLU(inplace=True)
    )
  )
)"]
	"backbone_b.8.m.0.m.0" [label="Bottleneck(
  (cv1): Conv(
    (conv): Conv2d(192, 192, kernel_size=(3, 3), stride=(1, 1), padding=(1, 1), bias=False)
    (bn): BatchNorm2d(192, eps=0.001, momentum=0.03, affine=True, track_running_stats=True)
    (act): SiLU(inplace=True)
  )
  (cv2): Conv(
    (conv): Conv2d(192, 192, kernel_size=(3, 3), stride=(1, 1), padding=(1, 1), bias=False)
    (bn): BatchNorm2d(192, eps=0.001, momentum=0.03, affine=True, track_running_stats=True)
    (act): SiLU(inplace=True)
  )
)"]
	"backbone_b.8.m.0.m.0.cv1" [label="Conv(
  (conv): Conv2d(192, 192, kernel_size=(3, 3), stride=(1, 1), padding=(1, 1), bias=False)
  (bn): BatchNorm2d(192, eps=0.001, momentum=0.03, affine=True, track_running_stats=True)
  (act): SiLU(inplace=True)
)"]
	"backbone_b.8.m.0.m.0.cv1.conv" [label="Conv2d(192, 192, kernel_size=(3, 3), stride=(1, 1), padding=(1, 1), bias=False)"]
	"backbone_b.8.m.0.m.0.cv1.bn" [label="BatchNorm2d(192, eps=0.001, momentum=0.03, affine=True, track_running_stats=True)"]
	"backbone_b.8.m.0.m.0.cv1.act" [label="SiLU(inplace=True)"]
	"backbone_b.8.m.0.m.0.cv2" [label="Conv(
  (conv): Conv2d(192, 192, kernel_size=(3, 3), stride=(1, 1), padding=(1, 1), bias=False)
  (bn): BatchNorm2d(192, eps=0.001, momentum=0.03, affine=True, track_running_stats=True)
  (act): SiLU(inplace=True)
)"]
	"backbone_b.8.m.0.m.0.cv2.conv" [label="Conv2d(192, 192, kernel_size=(3, 3), stride=(1, 1), padding=(1, 1), bias=False)"]
	"backbone_b.8.m.0.m.0.cv2.bn" [label="BatchNorm2d(192, eps=0.001, momentum=0.03, affine=True, track_running_stats=True)"]
	"backbone_b.8.m.0.m.0.cv2.act" [label="SiLU(inplace=True)"]
	"backbone_b.8.m.0.m.1" [label="Bottleneck(
  (cv1): Conv(
    (conv): Conv2d(192, 192, kernel_size=(3, 3), stride=(1, 1), padding=(1, 1), bias=False)
    (bn): BatchNorm2d(192, eps=0.001, momentum=0.03, affine=True, track_running_stats=True)
    (act): SiLU(inplace=True)
  )
  (cv2): Conv(
    (conv): Conv2d(192, 192, kernel_size=(3, 3), stride=(1, 1), padding=(1, 1), bias=False)
    (bn): BatchNorm2d(192, eps=0.001, momentum=0.03, affine=True, track_running_stats=True)
    (act): SiLU(inplace=True)
  )
)"]
	"backbone_b.8.m.0.m.1.cv1" [label="Conv(
  (conv): Conv2d(192, 192, kernel_size=(3, 3), stride=(1, 1), padding=(1, 1), bias=False)
  (bn): BatchNorm2d(192, eps=0.001, momentum=0.03, affine=True, track_running_stats=True)
  (act): SiLU(inplace=True)
)"]
	"backbone_b.8.m.0.m.1.cv1.conv" [label="Conv2d(192, 192, kernel_size=(3, 3), stride=(1, 1), padding=(1, 1), bias=False)"]
	"backbone_b.8.m.0.m.1.cv1.bn" [label="BatchNorm2d(192, eps=0.001, momentum=0.03, affine=True, track_running_stats=True)"]
	"backbone_b.8.m.0.m.1.cv1.act" [label="SiLU(inplace=True)"]
	"backbone_b.8.m.0.m.1.cv2" [label="Conv(
  (conv): Conv2d(192, 192, kernel_size=(3, 3), stride=(1, 1), padding=(1, 1), bias=False)
  (bn): BatchNorm2d(192, eps=0.001, momentum=0.03, affine=True, track_running_stats=True)
  (act): SiLU(inplace=True)
)"]
	"backbone_b.8.m.0.m.1.cv2.conv" [label="Conv2d(192, 192, kernel_size=(3, 3), stride=(1, 1), padding=(1, 1), bias=False)"]
	"backbone_b.8.m.0.m.1.cv2.bn" [label="BatchNorm2d(192, eps=0.001, momentum=0.03, affine=True, track_running_stats=True)"]
	"backbone_b.8.m.0.m.1.cv2.act" [label="SiLU(inplace=True)"]
	"backbone_b.8.m.1" [label="C3k(
  (cv1): Conv(
    (conv): Conv2d(384, 192, kernel_size=(1, 1), stride=(1, 1), bias=False)
    (bn): BatchNorm2d(192, eps=0.001, momentum=0.03, affine=True, track_running_stats=True)
    (act): SiLU(inplace=True)
  )
  (cv2): Conv(
    (conv): Conv2d(384, 192, kernel_size=(1, 1), stride=(1, 1), bias=False)
    (bn): BatchNorm2d(192, eps=0.001, momentum=0.03, affine=True, track_running_stats=True)
    (act): SiLU(inplace=True)
  )
  (cv3): Conv(
    (conv): Conv2d(384, 384, kernel_size=(1, 1), stride=(1, 1), bias=False)
    (bn): BatchNorm2d(384, eps=0.001, momentum=0.03, affine=True, track_running_stats=True)
    (act): SiLU(inplace=True)
  )
  (m): Sequential(
    (0): Bottleneck(
      (cv1): Conv(
        (conv): Conv2d(192, 192, kernel_size=(3, 3), stride=(1, 1), padding=(1, 1), bias=False)
        (bn): BatchNorm2d(192, eps=0.001, momentum=0.03, affine=True, track_running_stats=True)
        (act): SiLU(inplace=True)
      )
      (cv2): Conv(
        (conv): Conv2d(192, 192, kernel_size=(3, 3), stride=(1, 1), padding=(1, 1), bias=False)
        (bn): BatchNorm2d(192, eps=0.001, momentum=0.03, affine=True, track_running_stats=True)
        (act): SiLU(inplace=True)
      )
    )
    (1): Bottleneck(
      (cv1): Conv(
        (conv): Conv2d(192, 192, kernel_size=(3, 3), stride=(1, 1), padding=(1, 1), bias=False)
        (bn): BatchNorm2d(192, eps=0.001, momentum=0.03, affine=True, track_running_stats=True)
        (act): SiLU(inplace=True)
      )
      (cv2): Conv(
        (conv): Conv2d(192, 192, kernel_size=(3, 3), stride=(1, 1), padding=(1, 1), bias=False)
        (bn): BatchNorm2d(192, eps=0.001, momentum=0.03, affine=True, track_running_stats=True)
        (act): SiLU(inplace=True)
      )
    )
  )
)"]
	"backbone_b.8.m.1.cv1" [label="Conv(
  (conv): Conv2d(384, 192, kernel_size=(1, 1), stride=(1, 1), bias=False)
  (bn): BatchNorm2d(192, eps=0.001, momentum=0.03, affine=True, track_running_stats=True)
  (act): SiLU(inplace=True)
)"]
	"backbone_b.8.m.1.cv1.conv" [label="Conv2d(384, 192, kernel_size=(1, 1), stride=(1, 1), bias=False)"]
	"backbone_b.8.m.1.cv1.bn" [label="BatchNorm2d(192, eps=0.001, momentum=0.03, affine=True, track_running_stats=True)"]
	"backbone_b.8.m.1.cv1.act" [label="SiLU(inplace=True)"]
	"backbone_b.8.m.1.cv2" [label="Conv(
  (conv): Conv2d(384, 192, kernel_size=(1, 1), stride=(1, 1), bias=False)
  (bn): BatchNorm2d(192, eps=0.001, momentum=0.03, affine=True, track_running_stats=True)
  (act): SiLU(inplace=True)
)"]
	"backbone_b.8.m.1.cv2.conv" [label="Conv2d(384, 192, kernel_size=(1, 1), stride=(1, 1), bias=False)"]
	"backbone_b.8.m.1.cv2.bn" [label="BatchNorm2d(192, eps=0.001, momentum=0.03, affine=True, track_running_stats=True)"]
	"backbone_b.8.m.1.cv2.act" [label="SiLU(inplace=True)"]
	"backbone_b.8.m.1.cv3" [label="Conv(
  (conv): Conv2d(384, 384, kernel_size=(1, 1), stride=(1, 1), bias=False)
  (bn): BatchNorm2d(384, eps=0.001, momentum=0.03, affine=True, track_running_stats=True)
  (act): SiLU(inplace=True)
)"]
	"backbone_b.8.m.1.cv3.conv" [label="Conv2d(384, 384, kernel_size=(1, 1), stride=(1, 1), bias=False)"]
	"backbone_b.8.m.1.cv3.bn" [label="BatchNorm2d(384, eps=0.001, momentum=0.03, affine=True, track_running_stats=True)"]
	"backbone_b.8.m.1.cv3.act" [label="SiLU(inplace=True)"]
	"backbone_b.8.m.1.m" [label="Sequential(
  (0): Bottleneck(
    (cv1): Conv(
      (conv): Conv2d(192, 192, kernel_size=(3, 3), stride=(1, 1), padding=(1, 1), bias=False)
      (bn): BatchNorm2d(192, eps=0.001, momentum=0.03, affine=True, track_running_stats=True)
      (act): SiLU(inplace=True)
    )
    (cv2): Conv(
      (conv): Conv2d(192, 192, kernel_size=(3, 3), stride=(1, 1), padding=(1, 1), bias=False)
      (bn): BatchNorm2d(192, eps=0.001, momentum=0.03, affine=True, track_running_stats=True)
      (act): SiLU(inplace=True)
    )
  )
  (1): Bottleneck(
    (cv1): Conv(
      (conv): Conv2d(192, 192, kernel_size=(3, 3), stride=(1, 1), padding=(1, 1), bias=False)
      (bn): BatchNorm2d(192, eps=0.001, momentum=0.03, affine=True, track_running_stats=True)
      (act): SiLU(inplace=True)
    )
    (cv2): Conv(
      (conv): Conv2d(192, 192, kernel_size=(3, 3), stride=(1, 1), padding=(1, 1), bias=False)
      (bn): BatchNorm2d(192, eps=0.001, momentum=0.03, affine=True, track_running_stats=True)
      (act): SiLU(inplace=True)
    )
  )
)"]
	"backbone_b.8.m.1.m.0" [label="Bottleneck(
  (cv1): Conv(
    (conv): Conv2d(192, 192, kernel_size=(3, 3), stride=(1, 1), padding=(1, 1), bias=False)
    (bn): BatchNorm2d(192, eps=0.001, momentum=0.03, affine=True, track_running_stats=True)
    (act): SiLU(inplace=True)
  )
  (cv2): Conv(
    (conv): Conv2d(192, 192, kernel_size=(3, 3), stride=(1, 1), padding=(1, 1), bias=False)
    (bn): BatchNorm2d(192, eps=0.001, momentum=0.03, affine=True, track_running_stats=True)
    (act): SiLU(inplace=True)
  )
)"]
	"backbone_b.8.m.1.m.0.cv1" [label="Conv(
  (conv): Conv2d(192, 192, kernel_size=(3, 3), stride=(1, 1), padding=(1, 1), bias=False)
  (bn): BatchNorm2d(192, eps=0.001, momentum=0.03, affine=True, track_running_stats=True)
  (act): SiLU(inplace=True)
)"]
	"backbone_b.8.m.1.m.0.cv1.conv" [label="Conv2d(192, 192, kernel_size=(3, 3), stride=(1, 1), padding=(1, 1), bias=False)"]
	"backbone_b.8.m.1.m.0.cv1.bn" [label="BatchNorm2d(192, eps=0.001, momentum=0.03, affine=True, track_running_stats=True)"]
	"backbone_b.8.m.1.m.0.cv1.act" [label="SiLU(inplace=True)"]
	"backbone_b.8.m.1.m.0.cv2" [label="Conv(
  (conv): Conv2d(192, 192, kernel_size=(3, 3), stride=(1, 1), padding=(1, 1), bias=False)
  (bn): BatchNorm2d(192, eps=0.001, momentum=0.03, affine=True, track_running_stats=True)
  (act): SiLU(inplace=True)
)"]
	"backbone_b.8.m.1.m.0.cv2.conv" [label="Conv2d(192, 192, kernel_size=(3, 3), stride=(1, 1), padding=(1, 1), bias=False)"]
	"backbone_b.8.m.1.m.0.cv2.bn" [label="BatchNorm2d(192, eps=0.001, momentum=0.03, affine=True, track_running_stats=True)"]
	"backbone_b.8.m.1.m.0.cv2.act" [label="SiLU(inplace=True)"]
	"backbone_b.8.m.1.m.1" [label="Bottleneck(
  (cv1): Conv(
    (conv): Conv2d(192, 192, kernel_size=(3, 3), stride=(1, 1), padding=(1, 1), bias=False)
    (bn): BatchNorm2d(192, eps=0.001, momentum=0.03, affine=True, track_running_stats=True)
    (act): SiLU(inplace=True)
  )
  (cv2): Conv(
    (conv): Conv2d(192, 192, kernel_size=(3, 3), stride=(1, 1), padding=(1, 1), bias=False)
    (bn): BatchNorm2d(192, eps=0.001, momentum=0.03, affine=True, track_running_stats=True)
    (act): SiLU(inplace=True)
  )
)"]
	"backbone_b.8.m.1.m.1.cv1" [label="Conv(
  (conv): Conv2d(192, 192, kernel_size=(3, 3), stride=(1, 1), padding=(1, 1), bias=False)
  (bn): BatchNorm2d(192, eps=0.001, momentum=0.03, affine=True, track_running_stats=True)
  (act): SiLU(inplace=True)
)"]
	"backbone_b.8.m.1.m.1.cv1.conv" [label="Conv2d(192, 192, kernel_size=(3, 3), stride=(1, 1), padding=(1, 1), bias=False)"]
	"backbone_b.8.m.1.m.1.cv1.bn" [label="BatchNorm2d(192, eps=0.001, momentum=0.03, affine=True, track_running_stats=True)"]
	"backbone_b.8.m.1.m.1.cv1.act" [label="SiLU(inplace=True)"]
	"backbone_b.8.m.1.m.1.cv2" [label="Conv(
  (conv): Conv2d(192, 192, kernel_size=(3, 3), stride=(1, 1), padding=(1, 1), bias=False)
  (bn): BatchNorm2d(192, eps=0.001, momentum=0.03, affine=True, track_running_stats=True)
  (act): SiLU(inplace=True)
)"]
	"backbone_b.8.m.1.m.1.cv2.conv" [label="Conv2d(192, 192, kernel_size=(3, 3), stride=(1, 1), padding=(1, 1), bias=False)"]
	"backbone_b.8.m.1.m.1.cv2.bn" [label="BatchNorm2d(192, eps=0.001, momentum=0.03, affine=True, track_running_stats=True)"]
	"backbone_b.8.m.1.m.1.cv2.act" [label="SiLU(inplace=True)"]
	"backbone_b.9" [label="SPPF(
  (cv1): Conv(
    (conv): Conv2d(768, 384, kernel_size=(1, 1), stride=(1, 1), bias=False)
    (bn): BatchNorm2d(384, eps=0.001, momentum=0.03, affine=True, track_running_stats=True)
    (act): SiLU(inplace=True)
  )
  (cv2): Conv(
    (conv): Conv2d(1536, 768, kernel_size=(1, 1), stride=(1, 1), bias=False)
    (bn): BatchNorm2d(768, eps=0.001, momentum=0.03, affine=True, track_running_stats=True)
    (act): SiLU(inplace=True)
  )
  (m): MaxPool2d(kernel_size=5, stride=1, padding=2, dilation=1, ceil_mode=False)
)"]
	"backbone_b.9.cv1" [label="Conv(
  (conv): Conv2d(768, 384, kernel_size=(1, 1), stride=(1, 1), bias=False)
  (bn): BatchNorm2d(384, eps=0.001, momentum=0.03, affine=True, track_running_stats=True)
  (act): SiLU(inplace=True)
)"]
	"backbone_b.9.cv1.conv" [label="Conv2d(768, 384, kernel_size=(1, 1), stride=(1, 1), bias=False)"]
	"backbone_b.9.cv1.bn" [label="BatchNorm2d(384, eps=0.001, momentum=0.03, affine=True, track_running_stats=True)"]
	"backbone_b.9.cv1.act" [label="SiLU(inplace=True)"]
	"backbone_b.9.cv2" [label="Conv(
  (conv): Conv2d(1536, 768, kernel_size=(1, 1), stride=(1, 1), bias=False)
  (bn): BatchNorm2d(768, eps=0.001, momentum=0.03, affine=True, track_running_stats=True)
  (act): SiLU(inplace=True)
)"]
	"backbone_b.9.cv2.conv" [label="Conv2d(1536, 768, kernel_size=(1, 1), stride=(1, 1), bias=False)"]
	"backbone_b.9.cv2.bn" [label="BatchNorm2d(768, eps=0.001, momentum=0.03, affine=True, track_running_stats=True)"]
	"backbone_b.9.cv2.act" [label="SiLU(inplace=True)"]
	"backbone_b.9.m" [label="MaxPool2d(kernel_size=5, stride=1, padding=2, dilation=1, ceil_mode=False)"]
	backbone_w [label="Sequential(
  (0): Conv(
    (conv): Conv2d(3, 96, kernel_size=(3, 3), stride=(2, 2), padding=(1, 1), bias=False)
    (bn): BatchNorm2d(96, eps=0.001, momentum=0.03, affine=True, track_running_stats=True)
    (act): SiLU(inplace=True)
  )
  (1): Conv(
    (conv): Conv2d(96, 192, kernel_size=(3, 3), stride=(2, 2), padding=(1, 1), bias=False)
    (bn): BatchNorm2d(192, eps=0.001, momentum=0.03, affine=True, track_running_stats=True)
    (act): SiLU(inplace=True)
  )
  (2): C3k2(
    (cv1): Conv(
      (conv): Conv2d(192, 192, kernel_size=(1, 1), stride=(1, 1), bias=False)
      (bn): BatchNorm2d(192, eps=0.001, momentum=0.03, affine=True, track_running_stats=True)
      (act): SiLU(inplace=True)
    )
    (cv2): Conv(
      (conv): Conv2d(384, 384, kernel_size=(1, 1), stride=(1, 1), bias=False)
      (bn): BatchNorm2d(384, eps=0.001, momentum=0.03, affine=True, track_running_stats=True)
      (act): SiLU(inplace=True)
    )
    (m): ModuleList(
      (0-1): 2 x C3k(
        (cv1): Conv(
          (conv): Conv2d(96, 48, kernel_size=(1, 1), stride=(1, 1), bias=False)
          (bn): BatchNorm2d(48, eps=0.001, momentum=0.03, affine=True, track_running_stats=True)
          (act): SiLU(inplace=True)
        )
        (cv2): Conv(
          (conv): Conv2d(96, 48, kernel_size=(1, 1), stride=(1, 1), bias=False)
          (bn): BatchNorm2d(48, eps=0.001, momentum=0.03, affine=True, track_running_stats=True)
          (act): SiLU(inplace=True)
        )
        (cv3): Conv(
          (conv): Conv2d(96, 96, kernel_size=(1, 1), stride=(1, 1), bias=False)
          (bn): BatchNorm2d(96, eps=0.001, momentum=0.03, affine=True, track_running_stats=True)
          (act): SiLU(inplace=True)
        )
        (m): Sequential(
          (0): Bottleneck(
            (cv1): Conv(
              (conv): Conv2d(48, 48, kernel_size=(3, 3), stride=(1, 1), padding=(1, 1), bias=False)
              (bn): BatchNorm2d(48, eps=0.001, momentum=0.03, affine=True, track_running_stats=True)
              (act): SiLU(inplace=True)
            )
            (cv2): Conv(
              (conv): Conv2d(48, 48, kernel_size=(3, 3), stride=(1, 1), padding=(1, 1), bias=False)
              (bn): BatchNorm2d(48, eps=0.001, momentum=0.03, affine=True, track_running_stats=True)
              (act): SiLU(inplace=True)
            )
          )
          (1): Bottleneck(
            (cv1): Conv(
              (conv): Conv2d(48, 48, kernel_size=(3, 3), stride=(1, 1), padding=(1, 1), bias=False)
              (bn): BatchNorm2d(48, eps=0.001, momentum=0.03, affine=True, track_running_stats=True)
              (act): SiLU(inplace=True)
            )
            (cv2): Conv(
              (conv): Conv2d(48, 48, kernel_size=(3, 3), stride=(1, 1), padding=(1, 1), bias=False)
              (bn): BatchNorm2d(48, eps=0.001, momentum=0.03, affine=True, track_running_stats=True)
              (act): SiLU(inplace=True)
            )
          )
        )
      )
    )
  )
  (3): Conv(
    (conv): Conv2d(384, 384, kernel_size=(3, 3), stride=(2, 2), padding=(1, 1), bias=False)
    (bn): BatchNorm2d(384, eps=0.001, momentum=0.03, affine=True, track_running_stats=True)
    (act): SiLU(inplace=True)
  )
  (4): C3k2(
    (cv1): Conv(
      (conv): Conv2d(384, 384, kernel_size=(1, 1), stride=(1, 1), bias=False)
      (bn): BatchNorm2d(384, eps=0.001, momentum=0.03, affine=True, track_running_stats=True)
      (act): SiLU(inplace=True)
    )
    (cv2): Conv(
      (conv): Conv2d(768, 768, kernel_size=(1, 1), stride=(1, 1), bias=False)
      (bn): BatchNorm2d(768, eps=0.001, momentum=0.03, affine=True, track_running_stats=True)
      (act): SiLU(inplace=True)
    )
    (m): ModuleList(
      (0-1): 2 x C3k(
        (cv1): Conv(
          (conv): Conv2d(192, 96, kernel_size=(1, 1), stride=(1, 1), bias=False)
          (bn): BatchNorm2d(96, eps=0.001, momentum=0.03, affine=True, track_running_stats=True)
          (act): SiLU(inplace=True)
        )
        (cv2): Conv(
          (conv): Conv2d(192, 96, kernel_size=(1, 1), stride=(1, 1), bias=False)
          (bn): BatchNorm2d(96, eps=0.001, momentum=0.03, affine=True, track_running_stats=True)
          (act): SiLU(inplace=True)
        )
        (cv3): Conv(
          (conv): Conv2d(192, 192, kernel_size=(1, 1), stride=(1, 1), bias=False)
          (bn): BatchNorm2d(192, eps=0.001, momentum=0.03, affine=True, track_running_stats=True)
          (act): SiLU(inplace=True)
        )
        (m): Sequential(
          (0): Bottleneck(
            (cv1): Conv(
              (conv): Conv2d(96, 96, kernel_size=(3, 3), stride=(1, 1), padding=(1, 1), bias=False)
              (bn): BatchNorm2d(96, eps=0.001, momentum=0.03, affine=True, track_running_stats=True)
              (act): SiLU(inplace=True)
            )
            (cv2): Conv(
              (conv): Conv2d(96, 96, kernel_size=(3, 3), stride=(1, 1), padding=(1, 1), bias=False)
              (bn): BatchNorm2d(96, eps=0.001, momentum=0.03, affine=True, track_running_stats=True)
              (act): SiLU(inplace=True)
            )
          )
          (1): Bottleneck(
            (cv1): Conv(
              (conv): Conv2d(96, 96, kernel_size=(3, 3), stride=(1, 1), padding=(1, 1), bias=False)
              (bn): BatchNorm2d(96, eps=0.001, momentum=0.03, affine=True, track_running_stats=True)
              (act): SiLU(inplace=True)
            )
            (cv2): Conv(
              (conv): Conv2d(96, 96, kernel_size=(3, 3), stride=(1, 1), padding=(1, 1), bias=False)
              (bn): BatchNorm2d(96, eps=0.001, momentum=0.03, affine=True, track_running_stats=True)
              (act): SiLU(inplace=True)
            )
          )
        )
      )
    )
  )
  (5): Conv(
    (conv): Conv2d(768, 768, kernel_size=(3, 3), stride=(2, 2), padding=(1, 1), bias=False)
    (bn): BatchNorm2d(768, eps=0.001, momentum=0.03, affine=True, track_running_stats=True)
    (act): SiLU(inplace=True)
  )
  (6): C3k2(
    (cv1): Conv(
      (conv): Conv2d(768, 768, kernel_size=(1, 1), stride=(1, 1), bias=False)
      (bn): BatchNorm2d(768, eps=0.001, momentum=0.03, affine=True, track_running_stats=True)
      (act): SiLU(inplace=True)
    )
    (cv2): Conv(
      (conv): Conv2d(1536, 768, kernel_size=(1, 1), stride=(1, 1), bias=False)
      (bn): BatchNorm2d(768, eps=0.001, momentum=0.03, affine=True, track_running_stats=True)
      (act): SiLU(inplace=True)
    )
    (m): ModuleList(
      (0-1): 2 x C3k(
        (cv1): Conv(
          (conv): Conv2d(384, 192, kernel_size=(1, 1), stride=(1, 1), bias=False)
          (bn): BatchNorm2d(192, eps=0.001, momentum=0.03, affine=True, track_running_stats=True)
          (act): SiLU(inplace=True)
        )
        (cv2): Conv(
          (conv): Conv2d(384, 192, kernel_size=(1, 1), stride=(1, 1), bias=False)
          (bn): BatchNorm2d(192, eps=0.001, momentum=0.03, affine=True, track_running_stats=True)
          (act): SiLU(inplace=True)
        )
        (cv3): Conv(
          (conv): Conv2d(384, 384, kernel_size=(1, 1), stride=(1, 1), bias=False)
          (bn): BatchNorm2d(384, eps=0.001, momentum=0.03, affine=True, track_running_stats=True)
          (act): SiLU(inplace=True)
        )
        (m): Sequential(
          (0): Bottleneck(
            (cv1): Conv(
              (conv): Conv2d(192, 192, kernel_size=(3, 3), stride=(1, 1), padding=(1, 1), bias=False)
              (bn): BatchNorm2d(192, eps=0.001, momentum=0.03, affine=True, track_running_stats=True)
              (act): SiLU(inplace=True)
            )
            (cv2): Conv(
              (conv): Conv2d(192, 192, kernel_size=(3, 3), stride=(1, 1), padding=(1, 1), bias=False)
              (bn): BatchNorm2d(192, eps=0.001, momentum=0.03, affine=True, track_running_stats=True)
              (act): SiLU(inplace=True)
            )
          )
          (1): Bottleneck(
            (cv1): Conv(
              (conv): Conv2d(192, 192, kernel_size=(3, 3), stride=(1, 1), padding=(1, 1), bias=False)
              (bn): BatchNorm2d(192, eps=0.001, momentum=0.03, affine=True, track_running_stats=True)
              (act): SiLU(inplace=True)
            )
            (cv2): Conv(
              (conv): Conv2d(192, 192, kernel_size=(3, 3), stride=(1, 1), padding=(1, 1), bias=False)
              (bn): BatchNorm2d(192, eps=0.001, momentum=0.03, affine=True, track_running_stats=True)
              (act): SiLU(inplace=True)
            )
          )
        )
      )
    )
  )
  (7): Conv(
    (conv): Conv2d(768, 768, kernel_size=(3, 3), stride=(2, 2), padding=(1, 1), bias=False)
    (bn): BatchNorm2d(768, eps=0.001, momentum=0.03, affine=True, track_running_stats=True)
    (act): SiLU(inplace=True)
  )
  (8): C3k2(
    (cv1): Conv(
      (conv): Conv2d(768, 768, kernel_size=(1, 1), stride=(1, 1), bias=False)
      (bn): BatchNorm2d(768, eps=0.001, momentum=0.03, affine=True, track_running_stats=True)
      (act): SiLU(inplace=True)
    )
    (cv2): Conv(
      (conv): Conv2d(1536, 768, kernel_size=(1, 1), stride=(1, 1), bias=False)
      (bn): BatchNorm2d(768, eps=0.001, momentum=0.03, affine=True, track_running_stats=True)
      (act): SiLU(inplace=True)
    )
    (m): ModuleList(
      (0-1): 2 x C3k(
        (cv1): Conv(
          (conv): Conv2d(384, 192, kernel_size=(1, 1), stride=(1, 1), bias=False)
          (bn): BatchNorm2d(192, eps=0.001, momentum=0.03, affine=True, track_running_stats=True)
          (act): SiLU(inplace=True)
        )
        (cv2): Conv(
          (conv): Conv2d(384, 192, kernel_size=(1, 1), stride=(1, 1), bias=False)
          (bn): BatchNorm2d(192, eps=0.001, momentum=0.03, affine=True, track_running_stats=True)
          (act): SiLU(inplace=True)
        )
        (cv3): Conv(
          (conv): Conv2d(384, 384, kernel_size=(1, 1), stride=(1, 1), bias=False)
          (bn): BatchNorm2d(384, eps=0.001, momentum=0.03, affine=True, track_running_stats=True)
          (act): SiLU(inplace=True)
        )
        (m): Sequential(
          (0): Bottleneck(
            (cv1): Conv(
              (conv): Conv2d(192, 192, kernel_size=(3, 3), stride=(1, 1), padding=(1, 1), bias=False)
              (bn): BatchNorm2d(192, eps=0.001, momentum=0.03, affine=True, track_running_stats=True)
              (act): SiLU(inplace=True)
            )
            (cv2): Conv(
              (conv): Conv2d(192, 192, kernel_size=(3, 3), stride=(1, 1), padding=(1, 1), bias=False)
              (bn): BatchNorm2d(192, eps=0.001, momentum=0.03, affine=True, track_running_stats=True)
              (act): SiLU(inplace=True)
            )
          )
          (1): Bottleneck(
            (cv1): Conv(
              (conv): Conv2d(192, 192, kernel_size=(3, 3), stride=(1, 1), padding=(1, 1), bias=False)
              (bn): BatchNorm2d(192, eps=0.001, momentum=0.03, affine=True, track_running_stats=True)
              (act): SiLU(inplace=True)
            )
            (cv2): Conv(
              (conv): Conv2d(192, 192, kernel_size=(3, 3), stride=(1, 1), padding=(1, 1), bias=False)
              (bn): BatchNorm2d(192, eps=0.001, momentum=0.03, affine=True, track_running_stats=True)
              (act): SiLU(inplace=True)
            )
          )
        )
      )
    )
  )
  (9): SPPF(
    (cv1): Conv(
      (conv): Conv2d(768, 384, kernel_size=(1, 1), stride=(1, 1), bias=False)
      (bn): BatchNorm2d(384, eps=0.001, momentum=0.03, affine=True, track_running_stats=True)
      (act): SiLU(inplace=True)
    )
    (cv2): Conv(
      (conv): Conv2d(1536, 768, kernel_size=(1, 1), stride=(1, 1), bias=False)
      (bn): BatchNorm2d(768, eps=0.001, momentum=0.03, affine=True, track_running_stats=True)
      (act): SiLU(inplace=True)
    )
    (m): MaxPool2d(kernel_size=5, stride=1, padding=2, dilation=1, ceil_mode=False)
  )
)"]
	"backbone_w.0" [label="Conv(
  (conv): Conv2d(3, 96, kernel_size=(3, 3), stride=(2, 2), padding=(1, 1), bias=False)
  (bn): BatchNorm2d(96, eps=0.001, momentum=0.03, affine=True, track_running_stats=True)
  (act): SiLU(inplace=True)
)"]
	"backbone_w.0.conv" [label="Conv2d(3, 96, kernel_size=(3, 3), stride=(2, 2), padding=(1, 1), bias=False)"]
	"backbone_w.0.bn" [label="BatchNorm2d(96, eps=0.001, momentum=0.03, affine=True, track_running_stats=True)"]
	"backbone_w.0.act" [label="SiLU(inplace=True)"]
	"backbone_w.1" [label="Conv(
  (conv): Conv2d(96, 192, kernel_size=(3, 3), stride=(2, 2), padding=(1, 1), bias=False)
  (bn): BatchNorm2d(192, eps=0.001, momentum=0.03, affine=True, track_running_stats=True)
  (act): SiLU(inplace=True)
)"]
	"backbone_w.1.conv" [label="Conv2d(96, 192, kernel_size=(3, 3), stride=(2, 2), padding=(1, 1), bias=False)"]
	"backbone_w.1.bn" [label="BatchNorm2d(192, eps=0.001, momentum=0.03, affine=True, track_running_stats=True)"]
	"backbone_w.1.act" [label="SiLU(inplace=True)"]
	"backbone_w.2" [label="C3k2(
  (cv1): Conv(
    (conv): Conv2d(192, 192, kernel_size=(1, 1), stride=(1, 1), bias=False)
    (bn): BatchNorm2d(192, eps=0.001, momentum=0.03, affine=True, track_running_stats=True)
    (act): SiLU(inplace=True)
  )
  (cv2): Conv(
    (conv): Conv2d(384, 384, kernel_size=(1, 1), stride=(1, 1), bias=False)
    (bn): BatchNorm2d(384, eps=0.001, momentum=0.03, affine=True, track_running_stats=True)
    (act): SiLU(inplace=True)
  )
  (m): ModuleList(
    (0-1): 2 x C3k(
      (cv1): Conv(
        (conv): Conv2d(96, 48, kernel_size=(1, 1), stride=(1, 1), bias=False)
        (bn): BatchNorm2d(48, eps=0.001, momentum=0.03, affine=True, track_running_stats=True)
        (act): SiLU(inplace=True)
      )
      (cv2): Conv(
        (conv): Conv2d(96, 48, kernel_size=(1, 1), stride=(1, 1), bias=False)
        (bn): BatchNorm2d(48, eps=0.001, momentum=0.03, affine=True, track_running_stats=True)
        (act): SiLU(inplace=True)
      )
      (cv3): Conv(
        (conv): Conv2d(96, 96, kernel_size=(1, 1), stride=(1, 1), bias=False)
        (bn): BatchNorm2d(96, eps=0.001, momentum=0.03, affine=True, track_running_stats=True)
        (act): SiLU(inplace=True)
      )
      (m): Sequential(
        (0): Bottleneck(
          (cv1): Conv(
            (conv): Conv2d(48, 48, kernel_size=(3, 3), stride=(1, 1), padding=(1, 1), bias=False)
            (bn): BatchNorm2d(48, eps=0.001, momentum=0.03, affine=True, track_running_stats=True)
            (act): SiLU(inplace=True)
          )
          (cv2): Conv(
            (conv): Conv2d(48, 48, kernel_size=(3, 3), stride=(1, 1), padding=(1, 1), bias=False)
            (bn): BatchNorm2d(48, eps=0.001, momentum=0.03, affine=True, track_running_stats=True)
            (act): SiLU(inplace=True)
          )
        )
        (1): Bottleneck(
          (cv1): Conv(
            (conv): Conv2d(48, 48, kernel_size=(3, 3), stride=(1, 1), padding=(1, 1), bias=False)
            (bn): BatchNorm2d(48, eps=0.001, momentum=0.03, affine=True, track_running_stats=True)
            (act): SiLU(inplace=True)
          )
          (cv2): Conv(
            (conv): Conv2d(48, 48, kernel_size=(3, 3), stride=(1, 1), padding=(1, 1), bias=False)
            (bn): BatchNorm2d(48, eps=0.001, momentum=0.03, affine=True, track_running_stats=True)
            (act): SiLU(inplace=True)
          )
        )
      )
    )
  )
)"]
	"backbone_w.2.cv1" [label="Conv(
  (conv): Conv2d(192, 192, kernel_size=(1, 1), stride=(1, 1), bias=False)
  (bn): BatchNorm2d(192, eps=0.001, momentum=0.03, affine=True, track_running_stats=True)
  (act): SiLU(inplace=True)
)"]
	"backbone_w.2.cv1.conv" [label="Conv2d(192, 192, kernel_size=(1, 1), stride=(1, 1), bias=False)"]
	"backbone_w.2.cv1.bn" [label="BatchNorm2d(192, eps=0.001, momentum=0.03, affine=True, track_running_stats=True)"]
	"backbone_w.2.cv1.act" [label="SiLU(inplace=True)"]
	"backbone_w.2.cv2" [label="Conv(
  (conv): Conv2d(384, 384, kernel_size=(1, 1), stride=(1, 1), bias=False)
  (bn): BatchNorm2d(384, eps=0.001, momentum=0.03, affine=True, track_running_stats=True)
  (act): SiLU(inplace=True)
)"]
	"backbone_w.2.cv2.conv" [label="Conv2d(384, 384, kernel_size=(1, 1), stride=(1, 1), bias=False)"]
	"backbone_w.2.cv2.bn" [label="BatchNorm2d(384, eps=0.001, momentum=0.03, affine=True, track_running_stats=True)"]
	"backbone_w.2.cv2.act" [label="SiLU(inplace=True)"]
	"backbone_w.2.m" [label="ModuleList(
  (0-1): 2 x C3k(
    (cv1): Conv(
      (conv): Conv2d(96, 48, kernel_size=(1, 1), stride=(1, 1), bias=False)
      (bn): BatchNorm2d(48, eps=0.001, momentum=0.03, affine=True, track_running_stats=True)
      (act): SiLU(inplace=True)
    )
    (cv2): Conv(
      (conv): Conv2d(96, 48, kernel_size=(1, 1), stride=(1, 1), bias=False)
      (bn): BatchNorm2d(48, eps=0.001, momentum=0.03, affine=True, track_running_stats=True)
      (act): SiLU(inplace=True)
    )
    (cv3): Conv(
      (conv): Conv2d(96, 96, kernel_size=(1, 1), stride=(1, 1), bias=False)
      (bn): BatchNorm2d(96, eps=0.001, momentum=0.03, affine=True, track_running_stats=True)
      (act): SiLU(inplace=True)
    )
    (m): Sequential(
      (0): Bottleneck(
        (cv1): Conv(
          (conv): Conv2d(48, 48, kernel_size=(3, 3), stride=(1, 1), padding=(1, 1), bias=False)
          (bn): BatchNorm2d(48, eps=0.001, momentum=0.03, affine=True, track_running_stats=True)
          (act): SiLU(inplace=True)
        )
        (cv2): Conv(
          (conv): Conv2d(48, 48, kernel_size=(3, 3), stride=(1, 1), padding=(1, 1), bias=False)
          (bn): BatchNorm2d(48, eps=0.001, momentum=0.03, affine=True, track_running_stats=True)
          (act): SiLU(inplace=True)
        )
      )
      (1): Bottleneck(
        (cv1): Conv(
          (conv): Conv2d(48, 48, kernel_size=(3, 3), stride=(1, 1), padding=(1, 1), bias=False)
          (bn): BatchNorm2d(48, eps=0.001, momentum=0.03, affine=True, track_running_stats=True)
          (act): SiLU(inplace=True)
        )
        (cv2): Conv(
          (conv): Conv2d(48, 48, kernel_size=(3, 3), stride=(1, 1), padding=(1, 1), bias=False)
          (bn): BatchNorm2d(48, eps=0.001, momentum=0.03, affine=True, track_running_stats=True)
          (act): SiLU(inplace=True)
        )
      )
    )
  )
)"]
	"backbone_w.2.m.0" [label="C3k(
  (cv1): Conv(
    (conv): Conv2d(96, 48, kernel_size=(1, 1), stride=(1, 1), bias=False)
    (bn): BatchNorm2d(48, eps=0.001, momentum=0.03, affine=True, track_running_stats=True)
    (act): SiLU(inplace=True)
  )
  (cv2): Conv(
    (conv): Conv2d(96, 48, kernel_size=(1, 1), stride=(1, 1), bias=False)
    (bn): BatchNorm2d(48, eps=0.001, momentum=0.03, affine=True, track_running_stats=True)
    (act): SiLU(inplace=True)
  )
  (cv3): Conv(
    (conv): Conv2d(96, 96, kernel_size=(1, 1), stride=(1, 1), bias=False)
    (bn): BatchNorm2d(96, eps=0.001, momentum=0.03, affine=True, track_running_stats=True)
    (act): SiLU(inplace=True)
  )
  (m): Sequential(
    (0): Bottleneck(
      (cv1): Conv(
        (conv): Conv2d(48, 48, kernel_size=(3, 3), stride=(1, 1), padding=(1, 1), bias=False)
        (bn): BatchNorm2d(48, eps=0.001, momentum=0.03, affine=True, track_running_stats=True)
        (act): SiLU(inplace=True)
      )
      (cv2): Conv(
        (conv): Conv2d(48, 48, kernel_size=(3, 3), stride=(1, 1), padding=(1, 1), bias=False)
        (bn): BatchNorm2d(48, eps=0.001, momentum=0.03, affine=True, track_running_stats=True)
        (act): SiLU(inplace=True)
      )
    )
    (1): Bottleneck(
      (cv1): Conv(
        (conv): Conv2d(48, 48, kernel_size=(3, 3), stride=(1, 1), padding=(1, 1), bias=False)
        (bn): BatchNorm2d(48, eps=0.001, momentum=0.03, affine=True, track_running_stats=True)
        (act): SiLU(inplace=True)
      )
      (cv2): Conv(
        (conv): Conv2d(48, 48, kernel_size=(3, 3), stride=(1, 1), padding=(1, 1), bias=False)
        (bn): BatchNorm2d(48, eps=0.001, momentum=0.03, affine=True, track_running_stats=True)
        (act): SiLU(inplace=True)
      )
    )
  )
)"]
	"backbone_w.2.m.0.cv1" [label="Conv(
  (conv): Conv2d(96, 48, kernel_size=(1, 1), stride=(1, 1), bias=False)
  (bn): BatchNorm2d(48, eps=0.001, momentum=0.03, affine=True, track_running_stats=True)
  (act): SiLU(inplace=True)
)"]
	"backbone_w.2.m.0.cv1.conv" [label="Conv2d(96, 48, kernel_size=(1, 1), stride=(1, 1), bias=False)"]
	"backbone_w.2.m.0.cv1.bn" [label="BatchNorm2d(48, eps=0.001, momentum=0.03, affine=True, track_running_stats=True)"]
	"backbone_w.2.m.0.cv1.act" [label="SiLU(inplace=True)"]
	"backbone_w.2.m.0.cv2" [label="Conv(
  (conv): Conv2d(96, 48, kernel_size=(1, 1), stride=(1, 1), bias=False)
  (bn): BatchNorm2d(48, eps=0.001, momentum=0.03, affine=True, track_running_stats=True)
  (act): SiLU(inplace=True)
)"]
	"backbone_w.2.m.0.cv2.conv" [label="Conv2d(96, 48, kernel_size=(1, 1), stride=(1, 1), bias=False)"]
	"backbone_w.2.m.0.cv2.bn" [label="BatchNorm2d(48, eps=0.001, momentum=0.03, affine=True, track_running_stats=True)"]
	"backbone_w.2.m.0.cv2.act" [label="SiLU(inplace=True)"]
	"backbone_w.2.m.0.cv3" [label="Conv(
  (conv): Conv2d(96, 96, kernel_size=(1, 1), stride=(1, 1), bias=False)
  (bn): BatchNorm2d(96, eps=0.001, momentum=0.03, affine=True, track_running_stats=True)
  (act): SiLU(inplace=True)
)"]
	"backbone_w.2.m.0.cv3.conv" [label="Conv2d(96, 96, kernel_size=(1, 1), stride=(1, 1), bias=False)"]
	"backbone_w.2.m.0.cv3.bn" [label="BatchNorm2d(96, eps=0.001, momentum=0.03, affine=True, track_running_stats=True)"]
	"backbone_w.2.m.0.cv3.act" [label="SiLU(inplace=True)"]
	"backbone_w.2.m.0.m" [label="Sequential(
  (0): Bottleneck(
    (cv1): Conv(
      (conv): Conv2d(48, 48, kernel_size=(3, 3), stride=(1, 1), padding=(1, 1), bias=False)
      (bn): BatchNorm2d(48, eps=0.001, momentum=0.03, affine=True, track_running_stats=True)
      (act): SiLU(inplace=True)
    )
    (cv2): Conv(
      (conv): Conv2d(48, 48, kernel_size=(3, 3), stride=(1, 1), padding=(1, 1), bias=False)
      (bn): BatchNorm2d(48, eps=0.001, momentum=0.03, affine=True, track_running_stats=True)
      (act): SiLU(inplace=True)
    )
  )
  (1): Bottleneck(
    (cv1): Conv(
      (conv): Conv2d(48, 48, kernel_size=(3, 3), stride=(1, 1), padding=(1, 1), bias=False)
      (bn): BatchNorm2d(48, eps=0.001, momentum=0.03, affine=True, track_running_stats=True)
      (act): SiLU(inplace=True)
    )
    (cv2): Conv(
      (conv): Conv2d(48, 48, kernel_size=(3, 3), stride=(1, 1), padding=(1, 1), bias=False)
      (bn): BatchNorm2d(48, eps=0.001, momentum=0.03, affine=True, track_running_stats=True)
      (act): SiLU(inplace=True)
    )
  )
)"]
	"backbone_w.2.m.0.m.0" [label="Bottleneck(
  (cv1): Conv(
    (conv): Conv2d(48, 48, kernel_size=(3, 3), stride=(1, 1), padding=(1, 1), bias=False)
    (bn): BatchNorm2d(48, eps=0.001, momentum=0.03, affine=True, track_running_stats=True)
    (act): SiLU(inplace=True)
  )
  (cv2): Conv(
    (conv): Conv2d(48, 48, kernel_size=(3, 3), stride=(1, 1), padding=(1, 1), bias=False)
    (bn): BatchNorm2d(48, eps=0.001, momentum=0.03, affine=True, track_running_stats=True)
    (act): SiLU(inplace=True)
  )
)"]
	"backbone_w.2.m.0.m.0.cv1" [label="Conv(
  (conv): Conv2d(48, 48, kernel_size=(3, 3), stride=(1, 1), padding=(1, 1), bias=False)
  (bn): BatchNorm2d(48, eps=0.001, momentum=0.03, affine=True, track_running_stats=True)
  (act): SiLU(inplace=True)
)"]
	"backbone_w.2.m.0.m.0.cv1.conv" [label="Conv2d(48, 48, kernel_size=(3, 3), stride=(1, 1), padding=(1, 1), bias=False)"]
	"backbone_w.2.m.0.m.0.cv1.bn" [label="BatchNorm2d(48, eps=0.001, momentum=0.03, affine=True, track_running_stats=True)"]
	"backbone_w.2.m.0.m.0.cv1.act" [label="SiLU(inplace=True)"]
	"backbone_w.2.m.0.m.0.cv2" [label="Conv(
  (conv): Conv2d(48, 48, kernel_size=(3, 3), stride=(1, 1), padding=(1, 1), bias=False)
  (bn): BatchNorm2d(48, eps=0.001, momentum=0.03, affine=True, track_running_stats=True)
  (act): SiLU(inplace=True)
)"]
	"backbone_w.2.m.0.m.0.cv2.conv" [label="Conv2d(48, 48, kernel_size=(3, 3), stride=(1, 1), padding=(1, 1), bias=False)"]
	"backbone_w.2.m.0.m.0.cv2.bn" [label="BatchNorm2d(48, eps=0.001, momentum=0.03, affine=True, track_running_stats=True)"]
	"backbone_w.2.m.0.m.0.cv2.act" [label="SiLU(inplace=True)"]
	"backbone_w.2.m.0.m.1" [label="Bottleneck(
  (cv1): Conv(
    (conv): Conv2d(48, 48, kernel_size=(3, 3), stride=(1, 1), padding=(1, 1), bias=False)
    (bn): BatchNorm2d(48, eps=0.001, momentum=0.03, affine=True, track_running_stats=True)
    (act): SiLU(inplace=True)
  )
  (cv2): Conv(
    (conv): Conv2d(48, 48, kernel_size=(3, 3), stride=(1, 1), padding=(1, 1), bias=False)
    (bn): BatchNorm2d(48, eps=0.001, momentum=0.03, affine=True, track_running_stats=True)
    (act): SiLU(inplace=True)
  )
)"]
	"backbone_w.2.m.0.m.1.cv1" [label="Conv(
  (conv): Conv2d(48, 48, kernel_size=(3, 3), stride=(1, 1), padding=(1, 1), bias=False)
  (bn): BatchNorm2d(48, eps=0.001, momentum=0.03, affine=True, track_running_stats=True)
  (act): SiLU(inplace=True)
)"]
	"backbone_w.2.m.0.m.1.cv1.conv" [label="Conv2d(48, 48, kernel_size=(3, 3), stride=(1, 1), padding=(1, 1), bias=False)"]
	"backbone_w.2.m.0.m.1.cv1.bn" [label="BatchNorm2d(48, eps=0.001, momentum=0.03, affine=True, track_running_stats=True)"]
	"backbone_w.2.m.0.m.1.cv1.act" [label="SiLU(inplace=True)"]
	"backbone_w.2.m.0.m.1.cv2" [label="Conv(
  (conv): Conv2d(48, 48, kernel_size=(3, 3), stride=(1, 1), padding=(1, 1), bias=False)
  (bn): BatchNorm2d(48, eps=0.001, momentum=0.03, affine=True, track_running_stats=True)
  (act): SiLU(inplace=True)
)"]
	"backbone_w.2.m.0.m.1.cv2.conv" [label="Conv2d(48, 48, kernel_size=(3, 3), stride=(1, 1), padding=(1, 1), bias=False)"]
	"backbone_w.2.m.0.m.1.cv2.bn" [label="BatchNorm2d(48, eps=0.001, momentum=0.03, affine=True, track_running_stats=True)"]
	"backbone_w.2.m.0.m.1.cv2.act" [label="SiLU(inplace=True)"]
	"backbone_w.2.m.1" [label="C3k(
  (cv1): Conv(
    (conv): Conv2d(96, 48, kernel_size=(1, 1), stride=(1, 1), bias=False)
    (bn): BatchNorm2d(48, eps=0.001, momentum=0.03, affine=True, track_running_stats=True)
    (act): SiLU(inplace=True)
  )
  (cv2): Conv(
    (conv): Conv2d(96, 48, kernel_size=(1, 1), stride=(1, 1), bias=False)
    (bn): BatchNorm2d(48, eps=0.001, momentum=0.03, affine=True, track_running_stats=True)
    (act): SiLU(inplace=True)
  )
  (cv3): Conv(
    (conv): Conv2d(96, 96, kernel_size=(1, 1), stride=(1, 1), bias=False)
    (bn): BatchNorm2d(96, eps=0.001, momentum=0.03, affine=True, track_running_stats=True)
    (act): SiLU(inplace=True)
  )
  (m): Sequential(
    (0): Bottleneck(
      (cv1): Conv(
        (conv): Conv2d(48, 48, kernel_size=(3, 3), stride=(1, 1), padding=(1, 1), bias=False)
        (bn): BatchNorm2d(48, eps=0.001, momentum=0.03, affine=True, track_running_stats=True)
        (act): SiLU(inplace=True)
      )
      (cv2): Conv(
        (conv): Conv2d(48, 48, kernel_size=(3, 3), stride=(1, 1), padding=(1, 1), bias=False)
        (bn): BatchNorm2d(48, eps=0.001, momentum=0.03, affine=True, track_running_stats=True)
        (act): SiLU(inplace=True)
      )
    )
    (1): Bottleneck(
      (cv1): Conv(
        (conv): Conv2d(48, 48, kernel_size=(3, 3), stride=(1, 1), padding=(1, 1), bias=False)
        (bn): BatchNorm2d(48, eps=0.001, momentum=0.03, affine=True, track_running_stats=True)
        (act): SiLU(inplace=True)
      )
      (cv2): Conv(
        (conv): Conv2d(48, 48, kernel_size=(3, 3), stride=(1, 1), padding=(1, 1), bias=False)
        (bn): BatchNorm2d(48, eps=0.001, momentum=0.03, affine=True, track_running_stats=True)
        (act): SiLU(inplace=True)
      )
    )
  )
)"]
	"backbone_w.2.m.1.cv1" [label="Conv(
  (conv): Conv2d(96, 48, kernel_size=(1, 1), stride=(1, 1), bias=False)
  (bn): BatchNorm2d(48, eps=0.001, momentum=0.03, affine=True, track_running_stats=True)
  (act): SiLU(inplace=True)
)"]
	"backbone_w.2.m.1.cv1.conv" [label="Conv2d(96, 48, kernel_size=(1, 1), stride=(1, 1), bias=False)"]
	"backbone_w.2.m.1.cv1.bn" [label="BatchNorm2d(48, eps=0.001, momentum=0.03, affine=True, track_running_stats=True)"]
	"backbone_w.2.m.1.cv1.act" [label="SiLU(inplace=True)"]
	"backbone_w.2.m.1.cv2" [label="Conv(
  (conv): Conv2d(96, 48, kernel_size=(1, 1), stride=(1, 1), bias=False)
  (bn): BatchNorm2d(48, eps=0.001, momentum=0.03, affine=True, track_running_stats=True)
  (act): SiLU(inplace=True)
)"]
	"backbone_w.2.m.1.cv2.conv" [label="Conv2d(96, 48, kernel_size=(1, 1), stride=(1, 1), bias=False)"]
	"backbone_w.2.m.1.cv2.bn" [label="BatchNorm2d(48, eps=0.001, momentum=0.03, affine=True, track_running_stats=True)"]
	"backbone_w.2.m.1.cv2.act" [label="SiLU(inplace=True)"]
	"backbone_w.2.m.1.cv3" [label="Conv(
  (conv): Conv2d(96, 96, kernel_size=(1, 1), stride=(1, 1), bias=False)
  (bn): BatchNorm2d(96, eps=0.001, momentum=0.03, affine=True, track_running_stats=True)
  (act): SiLU(inplace=True)
)"]
	"backbone_w.2.m.1.cv3.conv" [label="Conv2d(96, 96, kernel_size=(1, 1), stride=(1, 1), bias=False)"]
	"backbone_w.2.m.1.cv3.bn" [label="BatchNorm2d(96, eps=0.001, momentum=0.03, affine=True, track_running_stats=True)"]
	"backbone_w.2.m.1.cv3.act" [label="SiLU(inplace=True)"]
	"backbone_w.2.m.1.m" [label="Sequential(
  (0): Bottleneck(
    (cv1): Conv(
      (conv): Conv2d(48, 48, kernel_size=(3, 3), stride=(1, 1), padding=(1, 1), bias=False)
      (bn): BatchNorm2d(48, eps=0.001, momentum=0.03, affine=True, track_running_stats=True)
      (act): SiLU(inplace=True)
    )
    (cv2): Conv(
      (conv): Conv2d(48, 48, kernel_size=(3, 3), stride=(1, 1), padding=(1, 1), bias=False)
      (bn): BatchNorm2d(48, eps=0.001, momentum=0.03, affine=True, track_running_stats=True)
      (act): SiLU(inplace=True)
    )
  )
  (1): Bottleneck(
    (cv1): Conv(
      (conv): Conv2d(48, 48, kernel_size=(3, 3), stride=(1, 1), padding=(1, 1), bias=False)
      (bn): BatchNorm2d(48, eps=0.001, momentum=0.03, affine=True, track_running_stats=True)
      (act): SiLU(inplace=True)
    )
    (cv2): Conv(
      (conv): Conv2d(48, 48, kernel_size=(3, 3), stride=(1, 1), padding=(1, 1), bias=False)
      (bn): BatchNorm2d(48, eps=0.001, momentum=0.03, affine=True, track_running_stats=True)
      (act): SiLU(inplace=True)
    )
  )
)"]
	"backbone_w.2.m.1.m.0" [label="Bottleneck(
  (cv1): Conv(
    (conv): Conv2d(48, 48, kernel_size=(3, 3), stride=(1, 1), padding=(1, 1), bias=False)
    (bn): BatchNorm2d(48, eps=0.001, momentum=0.03, affine=True, track_running_stats=True)
    (act): SiLU(inplace=True)
  )
  (cv2): Conv(
    (conv): Conv2d(48, 48, kernel_size=(3, 3), stride=(1, 1), padding=(1, 1), bias=False)
    (bn): BatchNorm2d(48, eps=0.001, momentum=0.03, affine=True, track_running_stats=True)
    (act): SiLU(inplace=True)
  )
)"]
	"backbone_w.2.m.1.m.0.cv1" [label="Conv(
  (conv): Conv2d(48, 48, kernel_size=(3, 3), stride=(1, 1), padding=(1, 1), bias=False)
  (bn): BatchNorm2d(48, eps=0.001, momentum=0.03, affine=True, track_running_stats=True)
  (act): SiLU(inplace=True)
)"]
	"backbone_w.2.m.1.m.0.cv1.conv" [label="Conv2d(48, 48, kernel_size=(3, 3), stride=(1, 1), padding=(1, 1), bias=False)"]
	"backbone_w.2.m.1.m.0.cv1.bn" [label="BatchNorm2d(48, eps=0.001, momentum=0.03, affine=True, track_running_stats=True)"]
	"backbone_w.2.m.1.m.0.cv1.act" [label="SiLU(inplace=True)"]
	"backbone_w.2.m.1.m.0.cv2" [label="Conv(
  (conv): Conv2d(48, 48, kernel_size=(3, 3), stride=(1, 1), padding=(1, 1), bias=False)
  (bn): BatchNorm2d(48, eps=0.001, momentum=0.03, affine=True, track_running_stats=True)
  (act): SiLU(inplace=True)
)"]
	"backbone_w.2.m.1.m.0.cv2.conv" [label="Conv2d(48, 48, kernel_size=(3, 3), stride=(1, 1), padding=(1, 1), bias=False)"]
	"backbone_w.2.m.1.m.0.cv2.bn" [label="BatchNorm2d(48, eps=0.001, momentum=0.03, affine=True, track_running_stats=True)"]
	"backbone_w.2.m.1.m.0.cv2.act" [label="SiLU(inplace=True)"]
	"backbone_w.2.m.1.m.1" [label="Bottleneck(
  (cv1): Conv(
    (conv): Conv2d(48, 48, kernel_size=(3, 3), stride=(1, 1), padding=(1, 1), bias=False)
    (bn): BatchNorm2d(48, eps=0.001, momentum=0.03, affine=True, track_running_stats=True)
    (act): SiLU(inplace=True)
  )
  (cv2): Conv(
    (conv): Conv2d(48, 48, kernel_size=(3, 3), stride=(1, 1), padding=(1, 1), bias=False)
    (bn): BatchNorm2d(48, eps=0.001, momentum=0.03, affine=True, track_running_stats=True)
    (act): SiLU(inplace=True)
  )
)"]
	"backbone_w.2.m.1.m.1.cv1" [label="Conv(
  (conv): Conv2d(48, 48, kernel_size=(3, 3), stride=(1, 1), padding=(1, 1), bias=False)
  (bn): BatchNorm2d(48, eps=0.001, momentum=0.03, affine=True, track_running_stats=True)
  (act): SiLU(inplace=True)
)"]
	"backbone_w.2.m.1.m.1.cv1.conv" [label="Conv2d(48, 48, kernel_size=(3, 3), stride=(1, 1), padding=(1, 1), bias=False)"]
	"backbone_w.2.m.1.m.1.cv1.bn" [label="BatchNorm2d(48, eps=0.001, momentum=0.03, affine=True, track_running_stats=True)"]
	"backbone_w.2.m.1.m.1.cv1.act" [label="SiLU(inplace=True)"]
	"backbone_w.2.m.1.m.1.cv2" [label="Conv(
  (conv): Conv2d(48, 48, kernel_size=(3, 3), stride=(1, 1), padding=(1, 1), bias=False)
  (bn): BatchNorm2d(48, eps=0.001, momentum=0.03, affine=True, track_running_stats=True)
  (act): SiLU(inplace=True)
)"]
	"backbone_w.2.m.1.m.1.cv2.conv" [label="Conv2d(48, 48, kernel_size=(3, 3), stride=(1, 1), padding=(1, 1), bias=False)"]
	"backbone_w.2.m.1.m.1.cv2.bn" [label="BatchNorm2d(48, eps=0.001, momentum=0.03, affine=True, track_running_stats=True)"]
	"backbone_w.2.m.1.m.1.cv2.act" [label="SiLU(inplace=True)"]
	"backbone_w.3" [label="Conv(
  (conv): Conv2d(384, 384, kernel_size=(3, 3), stride=(2, 2), padding=(1, 1), bias=False)
  (bn): BatchNorm2d(384, eps=0.001, momentum=0.03, affine=True, track_running_stats=True)
  (act): SiLU(inplace=True)
)"]
	"backbone_w.3.conv" [label="Conv2d(384, 384, kernel_size=(3, 3), stride=(2, 2), padding=(1, 1), bias=False)"]
	"backbone_w.3.bn" [label="BatchNorm2d(384, eps=0.001, momentum=0.03, affine=True, track_running_stats=True)"]
	"backbone_w.3.act" [label="SiLU(inplace=True)"]
	"backbone_w.4" [label="C3k2(
  (cv1): Conv(
    (conv): Conv2d(384, 384, kernel_size=(1, 1), stride=(1, 1), bias=False)
    (bn): BatchNorm2d(384, eps=0.001, momentum=0.03, affine=True, track_running_stats=True)
    (act): SiLU(inplace=True)
  )
  (cv2): Conv(
    (conv): Conv2d(768, 768, kernel_size=(1, 1), stride=(1, 1), bias=False)
    (bn): BatchNorm2d(768, eps=0.001, momentum=0.03, affine=True, track_running_stats=True)
    (act): SiLU(inplace=True)
  )
  (m): ModuleList(
    (0-1): 2 x C3k(
      (cv1): Conv(
        (conv): Conv2d(192, 96, kernel_size=(1, 1), stride=(1, 1), bias=False)
        (bn): BatchNorm2d(96, eps=0.001, momentum=0.03, affine=True, track_running_stats=True)
        (act): SiLU(inplace=True)
      )
      (cv2): Conv(
        (conv): Conv2d(192, 96, kernel_size=(1, 1), stride=(1, 1), bias=False)
        (bn): BatchNorm2d(96, eps=0.001, momentum=0.03, affine=True, track_running_stats=True)
        (act): SiLU(inplace=True)
      )
      (cv3): Conv(
        (conv): Conv2d(192, 192, kernel_size=(1, 1), stride=(1, 1), bias=False)
        (bn): BatchNorm2d(192, eps=0.001, momentum=0.03, affine=True, track_running_stats=True)
        (act): SiLU(inplace=True)
      )
      (m): Sequential(
        (0): Bottleneck(
          (cv1): Conv(
            (conv): Conv2d(96, 96, kernel_size=(3, 3), stride=(1, 1), padding=(1, 1), bias=False)
            (bn): BatchNorm2d(96, eps=0.001, momentum=0.03, affine=True, track_running_stats=True)
            (act): SiLU(inplace=True)
          )
          (cv2): Conv(
            (conv): Conv2d(96, 96, kernel_size=(3, 3), stride=(1, 1), padding=(1, 1), bias=False)
            (bn): BatchNorm2d(96, eps=0.001, momentum=0.03, affine=True, track_running_stats=True)
            (act): SiLU(inplace=True)
          )
        )
        (1): Bottleneck(
          (cv1): Conv(
            (conv): Conv2d(96, 96, kernel_size=(3, 3), stride=(1, 1), padding=(1, 1), bias=False)
            (bn): BatchNorm2d(96, eps=0.001, momentum=0.03, affine=True, track_running_stats=True)
            (act): SiLU(inplace=True)
          )
          (cv2): Conv(
            (conv): Conv2d(96, 96, kernel_size=(3, 3), stride=(1, 1), padding=(1, 1), bias=False)
            (bn): BatchNorm2d(96, eps=0.001, momentum=0.03, affine=True, track_running_stats=True)
            (act): SiLU(inplace=True)
          )
        )
      )
    )
  )
)"]
	"backbone_w.4.cv1" [label="Conv(
  (conv): Conv2d(384, 384, kernel_size=(1, 1), stride=(1, 1), bias=False)
  (bn): BatchNorm2d(384, eps=0.001, momentum=0.03, affine=True, track_running_stats=True)
  (act): SiLU(inplace=True)
)"]
	"backbone_w.4.cv1.conv" [label="Conv2d(384, 384, kernel_size=(1, 1), stride=(1, 1), bias=False)"]
	"backbone_w.4.cv1.bn" [label="BatchNorm2d(384, eps=0.001, momentum=0.03, affine=True, track_running_stats=True)"]
	"backbone_w.4.cv1.act" [label="SiLU(inplace=True)"]
	"backbone_w.4.cv2" [label="Conv(
  (conv): Conv2d(768, 768, kernel_size=(1, 1), stride=(1, 1), bias=False)
  (bn): BatchNorm2d(768, eps=0.001, momentum=0.03, affine=True, track_running_stats=True)
  (act): SiLU(inplace=True)
)"]
	"backbone_w.4.cv2.conv" [label="Conv2d(768, 768, kernel_size=(1, 1), stride=(1, 1), bias=False)"]
	"backbone_w.4.cv2.bn" [label="BatchNorm2d(768, eps=0.001, momentum=0.03, affine=True, track_running_stats=True)"]
	"backbone_w.4.cv2.act" [label="SiLU(inplace=True)"]
	"backbone_w.4.m" [label="ModuleList(
  (0-1): 2 x C3k(
    (cv1): Conv(
      (conv): Conv2d(192, 96, kernel_size=(1, 1), stride=(1, 1), bias=False)
      (bn): BatchNorm2d(96, eps=0.001, momentum=0.03, affine=True, track_running_stats=True)
      (act): SiLU(inplace=True)
    )
    (cv2): Conv(
      (conv): Conv2d(192, 96, kernel_size=(1, 1), stride=(1, 1), bias=False)
      (bn): BatchNorm2d(96, eps=0.001, momentum=0.03, affine=True, track_running_stats=True)
      (act): SiLU(inplace=True)
    )
    (cv3): Conv(
      (conv): Conv2d(192, 192, kernel_size=(1, 1), stride=(1, 1), bias=False)
      (bn): BatchNorm2d(192, eps=0.001, momentum=0.03, affine=True, track_running_stats=True)
      (act): SiLU(inplace=True)
    )
    (m): Sequential(
      (0): Bottleneck(
        (cv1): Conv(
          (conv): Conv2d(96, 96, kernel_size=(3, 3), stride=(1, 1), padding=(1, 1), bias=False)
          (bn): BatchNorm2d(96, eps=0.001, momentum=0.03, affine=True, track_running_stats=True)
          (act): SiLU(inplace=True)
        )
        (cv2): Conv(
          (conv): Conv2d(96, 96, kernel_size=(3, 3), stride=(1, 1), padding=(1, 1), bias=False)
          (bn): BatchNorm2d(96, eps=0.001, momentum=0.03, affine=True, track_running_stats=True)
          (act): SiLU(inplace=True)
        )
      )
      (1): Bottleneck(
        (cv1): Conv(
          (conv): Conv2d(96, 96, kernel_size=(3, 3), stride=(1, 1), padding=(1, 1), bias=False)
          (bn): BatchNorm2d(96, eps=0.001, momentum=0.03, affine=True, track_running_stats=True)
          (act): SiLU(inplace=True)
        )
        (cv2): Conv(
          (conv): Conv2d(96, 96, kernel_size=(3, 3), stride=(1, 1), padding=(1, 1), bias=False)
          (bn): BatchNorm2d(96, eps=0.001, momentum=0.03, affine=True, track_running_stats=True)
          (act): SiLU(inplace=True)
        )
      )
    )
  )
)"]
	"backbone_w.4.m.0" [label="C3k(
  (cv1): Conv(
    (conv): Conv2d(192, 96, kernel_size=(1, 1), stride=(1, 1), bias=False)
    (bn): BatchNorm2d(96, eps=0.001, momentum=0.03, affine=True, track_running_stats=True)
    (act): SiLU(inplace=True)
  )
  (cv2): Conv(
    (conv): Conv2d(192, 96, kernel_size=(1, 1), stride=(1, 1), bias=False)
    (bn): BatchNorm2d(96, eps=0.001, momentum=0.03, affine=True, track_running_stats=True)
    (act): SiLU(inplace=True)
  )
  (cv3): Conv(
    (conv): Conv2d(192, 192, kernel_size=(1, 1), stride=(1, 1), bias=False)
    (bn): BatchNorm2d(192, eps=0.001, momentum=0.03, affine=True, track_running_stats=True)
    (act): SiLU(inplace=True)
  )
  (m): Sequential(
    (0): Bottleneck(
      (cv1): Conv(
        (conv): Conv2d(96, 96, kernel_size=(3, 3), stride=(1, 1), padding=(1, 1), bias=False)
        (bn): BatchNorm2d(96, eps=0.001, momentum=0.03, affine=True, track_running_stats=True)
        (act): SiLU(inplace=True)
      )
      (cv2): Conv(
        (conv): Conv2d(96, 96, kernel_size=(3, 3), stride=(1, 1), padding=(1, 1), bias=False)
        (bn): BatchNorm2d(96, eps=0.001, momentum=0.03, affine=True, track_running_stats=True)
        (act): SiLU(inplace=True)
      )
    )
    (1): Bottleneck(
      (cv1): Conv(
        (conv): Conv2d(96, 96, kernel_size=(3, 3), stride=(1, 1), padding=(1, 1), bias=False)
        (bn): BatchNorm2d(96, eps=0.001, momentum=0.03, affine=True, track_running_stats=True)
        (act): SiLU(inplace=True)
      )
      (cv2): Conv(
        (conv): Conv2d(96, 96, kernel_size=(3, 3), stride=(1, 1), padding=(1, 1), bias=False)
        (bn): BatchNorm2d(96, eps=0.001, momentum=0.03, affine=True, track_running_stats=True)
        (act): SiLU(inplace=True)
      )
    )
  )
)"]
	"backbone_w.4.m.0.cv1" [label="Conv(
  (conv): Conv2d(192, 96, kernel_size=(1, 1), stride=(1, 1), bias=False)
  (bn): BatchNorm2d(96, eps=0.001, momentum=0.03, affine=True, track_running_stats=True)
  (act): SiLU(inplace=True)
)"]
	"backbone_w.4.m.0.cv1.conv" [label="Conv2d(192, 96, kernel_size=(1, 1), stride=(1, 1), bias=False)"]
	"backbone_w.4.m.0.cv1.bn" [label="BatchNorm2d(96, eps=0.001, momentum=0.03, affine=True, track_running_stats=True)"]
	"backbone_w.4.m.0.cv1.act" [label="SiLU(inplace=True)"]
	"backbone_w.4.m.0.cv2" [label="Conv(
  (conv): Conv2d(192, 96, kernel_size=(1, 1), stride=(1, 1), bias=False)
  (bn): BatchNorm2d(96, eps=0.001, momentum=0.03, affine=True, track_running_stats=True)
  (act): SiLU(inplace=True)
)"]
	"backbone_w.4.m.0.cv2.conv" [label="Conv2d(192, 96, kernel_size=(1, 1), stride=(1, 1), bias=False)"]
	"backbone_w.4.m.0.cv2.bn" [label="BatchNorm2d(96, eps=0.001, momentum=0.03, affine=True, track_running_stats=True)"]
	"backbone_w.4.m.0.cv2.act" [label="SiLU(inplace=True)"]
	"backbone_w.4.m.0.cv3" [label="Conv(
  (conv): Conv2d(192, 192, kernel_size=(1, 1), stride=(1, 1), bias=False)
  (bn): BatchNorm2d(192, eps=0.001, momentum=0.03, affine=True, track_running_stats=True)
  (act): SiLU(inplace=True)
)"]
	"backbone_w.4.m.0.cv3.conv" [label="Conv2d(192, 192, kernel_size=(1, 1), stride=(1, 1), bias=False)"]
	"backbone_w.4.m.0.cv3.bn" [label="BatchNorm2d(192, eps=0.001, momentum=0.03, affine=True, track_running_stats=True)"]
	"backbone_w.4.m.0.cv3.act" [label="SiLU(inplace=True)"]
	"backbone_w.4.m.0.m" [label="Sequential(
  (0): Bottleneck(
    (cv1): Conv(
      (conv): Conv2d(96, 96, kernel_size=(3, 3), stride=(1, 1), padding=(1, 1), bias=False)
      (bn): BatchNorm2d(96, eps=0.001, momentum=0.03, affine=True, track_running_stats=True)
      (act): SiLU(inplace=True)
    )
    (cv2): Conv(
      (conv): Conv2d(96, 96, kernel_size=(3, 3), stride=(1, 1), padding=(1, 1), bias=False)
      (bn): BatchNorm2d(96, eps=0.001, momentum=0.03, affine=True, track_running_stats=True)
      (act): SiLU(inplace=True)
    )
  )
  (1): Bottleneck(
    (cv1): Conv(
      (conv): Conv2d(96, 96, kernel_size=(3, 3), stride=(1, 1), padding=(1, 1), bias=False)
      (bn): BatchNorm2d(96, eps=0.001, momentum=0.03, affine=True, track_running_stats=True)
      (act): SiLU(inplace=True)
    )
    (cv2): Conv(
      (conv): Conv2d(96, 96, kernel_size=(3, 3), stride=(1, 1), padding=(1, 1), bias=False)
      (bn): BatchNorm2d(96, eps=0.001, momentum=0.03, affine=True, track_running_stats=True)
      (act): SiLU(inplace=True)
    )
  )
)"]
	"backbone_w.4.m.0.m.0" [label="Bottleneck(
  (cv1): Conv(
    (conv): Conv2d(96, 96, kernel_size=(3, 3), stride=(1, 1), padding=(1, 1), bias=False)
    (bn): BatchNorm2d(96, eps=0.001, momentum=0.03, affine=True, track_running_stats=True)
    (act): SiLU(inplace=True)
  )
  (cv2): Conv(
    (conv): Conv2d(96, 96, kernel_size=(3, 3), stride=(1, 1), padding=(1, 1), bias=False)
    (bn): BatchNorm2d(96, eps=0.001, momentum=0.03, affine=True, track_running_stats=True)
    (act): SiLU(inplace=True)
  )
)"]
	"backbone_w.4.m.0.m.0.cv1" [label="Conv(
  (conv): Conv2d(96, 96, kernel_size=(3, 3), stride=(1, 1), padding=(1, 1), bias=False)
  (bn): BatchNorm2d(96, eps=0.001, momentum=0.03, affine=True, track_running_stats=True)
  (act): SiLU(inplace=True)
)"]
	"backbone_w.4.m.0.m.0.cv1.conv" [label="Conv2d(96, 96, kernel_size=(3, 3), stride=(1, 1), padding=(1, 1), bias=False)"]
	"backbone_w.4.m.0.m.0.cv1.bn" [label="BatchNorm2d(96, eps=0.001, momentum=0.03, affine=True, track_running_stats=True)"]
	"backbone_w.4.m.0.m.0.cv1.act" [label="SiLU(inplace=True)"]
	"backbone_w.4.m.0.m.0.cv2" [label="Conv(
  (conv): Conv2d(96, 96, kernel_size=(3, 3), stride=(1, 1), padding=(1, 1), bias=False)
  (bn): BatchNorm2d(96, eps=0.001, momentum=0.03, affine=True, track_running_stats=True)
  (act): SiLU(inplace=True)
)"]
	"backbone_w.4.m.0.m.0.cv2.conv" [label="Conv2d(96, 96, kernel_size=(3, 3), stride=(1, 1), padding=(1, 1), bias=False)"]
	"backbone_w.4.m.0.m.0.cv2.bn" [label="BatchNorm2d(96, eps=0.001, momentum=0.03, affine=True, track_running_stats=True)"]
	"backbone_w.4.m.0.m.0.cv2.act" [label="SiLU(inplace=True)"]
	"backbone_w.4.m.0.m.1" [label="Bottleneck(
  (cv1): Conv(
    (conv): Conv2d(96, 96, kernel_size=(3, 3), stride=(1, 1), padding=(1, 1), bias=False)
    (bn): BatchNorm2d(96, eps=0.001, momentum=0.03, affine=True, track_running_stats=True)
    (act): SiLU(inplace=True)
  )
  (cv2): Conv(
    (conv): Conv2d(96, 96, kernel_size=(3, 3), stride=(1, 1), padding=(1, 1), bias=False)
    (bn): BatchNorm2d(96, eps=0.001, momentum=0.03, affine=True, track_running_stats=True)
    (act): SiLU(inplace=True)
  )
)"]
	"backbone_w.4.m.0.m.1.cv1" [label="Conv(
  (conv): Conv2d(96, 96, kernel_size=(3, 3), stride=(1, 1), padding=(1, 1), bias=False)
  (bn): BatchNorm2d(96, eps=0.001, momentum=0.03, affine=True, track_running_stats=True)
  (act): SiLU(inplace=True)
)"]
	"backbone_w.4.m.0.m.1.cv1.conv" [label="Conv2d(96, 96, kernel_size=(3, 3), stride=(1, 1), padding=(1, 1), bias=False)"]
	"backbone_w.4.m.0.m.1.cv1.bn" [label="BatchNorm2d(96, eps=0.001, momentum=0.03, affine=True, track_running_stats=True)"]
	"backbone_w.4.m.0.m.1.cv1.act" [label="SiLU(inplace=True)"]
	"backbone_w.4.m.0.m.1.cv2" [label="Conv(
  (conv): Conv2d(96, 96, kernel_size=(3, 3), stride=(1, 1), padding=(1, 1), bias=False)
  (bn): BatchNorm2d(96, eps=0.001, momentum=0.03, affine=True, track_running_stats=True)
  (act): SiLU(inplace=True)
)"]
	"backbone_w.4.m.0.m.1.cv2.conv" [label="Conv2d(96, 96, kernel_size=(3, 3), stride=(1, 1), padding=(1, 1), bias=False)"]
	"backbone_w.4.m.0.m.1.cv2.bn" [label="BatchNorm2d(96, eps=0.001, momentum=0.03, affine=True, track_running_stats=True)"]
	"backbone_w.4.m.0.m.1.cv2.act" [label="SiLU(inplace=True)"]
	"backbone_w.4.m.1" [label="C3k(
  (cv1): Conv(
    (conv): Conv2d(192, 96, kernel_size=(1, 1), stride=(1, 1), bias=False)
    (bn): BatchNorm2d(96, eps=0.001, momentum=0.03, affine=True, track_running_stats=True)
    (act): SiLU(inplace=True)
  )
  (cv2): Conv(
    (conv): Conv2d(192, 96, kernel_size=(1, 1), stride=(1, 1), bias=False)
    (bn): BatchNorm2d(96, eps=0.001, momentum=0.03, affine=True, track_running_stats=True)
    (act): SiLU(inplace=True)
  )
  (cv3): Conv(
    (conv): Conv2d(192, 192, kernel_size=(1, 1), stride=(1, 1), bias=False)
    (bn): BatchNorm2d(192, eps=0.001, momentum=0.03, affine=True, track_running_stats=True)
    (act): SiLU(inplace=True)
  )
  (m): Sequential(
    (0): Bottleneck(
      (cv1): Conv(
        (conv): Conv2d(96, 96, kernel_size=(3, 3), stride=(1, 1), padding=(1, 1), bias=False)
        (bn): BatchNorm2d(96, eps=0.001, momentum=0.03, affine=True, track_running_stats=True)
        (act): SiLU(inplace=True)
      )
      (cv2): Conv(
        (conv): Conv2d(96, 96, kernel_size=(3, 3), stride=(1, 1), padding=(1, 1), bias=False)
        (bn): BatchNorm2d(96, eps=0.001, momentum=0.03, affine=True, track_running_stats=True)
        (act): SiLU(inplace=True)
      )
    )
    (1): Bottleneck(
      (cv1): Conv(
        (conv): Conv2d(96, 96, kernel_size=(3, 3), stride=(1, 1), padding=(1, 1), bias=False)
        (bn): BatchNorm2d(96, eps=0.001, momentum=0.03, affine=True, track_running_stats=True)
        (act): SiLU(inplace=True)
      )
      (cv2): Conv(
        (conv): Conv2d(96, 96, kernel_size=(3, 3), stride=(1, 1), padding=(1, 1), bias=False)
        (bn): BatchNorm2d(96, eps=0.001, momentum=0.03, affine=True, track_running_stats=True)
        (act): SiLU(inplace=True)
      )
    )
  )
)"]
	"backbone_w.4.m.1.cv1" [label="Conv(
  (conv): Conv2d(192, 96, kernel_size=(1, 1), stride=(1, 1), bias=False)
  (bn): BatchNorm2d(96, eps=0.001, momentum=0.03, affine=True, track_running_stats=True)
  (act): SiLU(inplace=True)
)"]
	"backbone_w.4.m.1.cv1.conv" [label="Conv2d(192, 96, kernel_size=(1, 1), stride=(1, 1), bias=False)"]
	"backbone_w.4.m.1.cv1.bn" [label="BatchNorm2d(96, eps=0.001, momentum=0.03, affine=True, track_running_stats=True)"]
	"backbone_w.4.m.1.cv1.act" [label="SiLU(inplace=True)"]
	"backbone_w.4.m.1.cv2" [label="Conv(
  (conv): Conv2d(192, 96, kernel_size=(1, 1), stride=(1, 1), bias=False)
  (bn): BatchNorm2d(96, eps=0.001, momentum=0.03, affine=True, track_running_stats=True)
  (act): SiLU(inplace=True)
)"]
	"backbone_w.4.m.1.cv2.conv" [label="Conv2d(192, 96, kernel_size=(1, 1), stride=(1, 1), bias=False)"]
	"backbone_w.4.m.1.cv2.bn" [label="BatchNorm2d(96, eps=0.001, momentum=0.03, affine=True, track_running_stats=True)"]
	"backbone_w.4.m.1.cv2.act" [label="SiLU(inplace=True)"]
	"backbone_w.4.m.1.cv3" [label="Conv(
  (conv): Conv2d(192, 192, kernel_size=(1, 1), stride=(1, 1), bias=False)
  (bn): BatchNorm2d(192, eps=0.001, momentum=0.03, affine=True, track_running_stats=True)
  (act): SiLU(inplace=True)
)"]
	"backbone_w.4.m.1.cv3.conv" [label="Conv2d(192, 192, kernel_size=(1, 1), stride=(1, 1), bias=False)"]
	"backbone_w.4.m.1.cv3.bn" [label="BatchNorm2d(192, eps=0.001, momentum=0.03, affine=True, track_running_stats=True)"]
	"backbone_w.4.m.1.cv3.act" [label="SiLU(inplace=True)"]
	"backbone_w.4.m.1.m" [label="Sequential(
  (0): Bottleneck(
    (cv1): Conv(
      (conv): Conv2d(96, 96, kernel_size=(3, 3), stride=(1, 1), padding=(1, 1), bias=False)
      (bn): BatchNorm2d(96, eps=0.001, momentum=0.03, affine=True, track_running_stats=True)
      (act): SiLU(inplace=True)
    )
    (cv2): Conv(
      (conv): Conv2d(96, 96, kernel_size=(3, 3), stride=(1, 1), padding=(1, 1), bias=False)
      (bn): BatchNorm2d(96, eps=0.001, momentum=0.03, affine=True, track_running_stats=True)
      (act): SiLU(inplace=True)
    )
  )
  (1): Bottleneck(
    (cv1): Conv(
      (conv): Conv2d(96, 96, kernel_size=(3, 3), stride=(1, 1), padding=(1, 1), bias=False)
      (bn): BatchNorm2d(96, eps=0.001, momentum=0.03, affine=True, track_running_stats=True)
      (act): SiLU(inplace=True)
    )
    (cv2): Conv(
      (conv): Conv2d(96, 96, kernel_size=(3, 3), stride=(1, 1), padding=(1, 1), bias=False)
      (bn): BatchNorm2d(96, eps=0.001, momentum=0.03, affine=True, track_running_stats=True)
      (act): SiLU(inplace=True)
    )
  )
)"]
	"backbone_w.4.m.1.m.0" [label="Bottleneck(
  (cv1): Conv(
    (conv): Conv2d(96, 96, kernel_size=(3, 3), stride=(1, 1), padding=(1, 1), bias=False)
    (bn): BatchNorm2d(96, eps=0.001, momentum=0.03, affine=True, track_running_stats=True)
    (act): SiLU(inplace=True)
  )
  (cv2): Conv(
    (conv): Conv2d(96, 96, kernel_size=(3, 3), stride=(1, 1), padding=(1, 1), bias=False)
    (bn): BatchNorm2d(96, eps=0.001, momentum=0.03, affine=True, track_running_stats=True)
    (act): SiLU(inplace=True)
  )
)"]
	"backbone_w.4.m.1.m.0.cv1" [label="Conv(
  (conv): Conv2d(96, 96, kernel_size=(3, 3), stride=(1, 1), padding=(1, 1), bias=False)
  (bn): BatchNorm2d(96, eps=0.001, momentum=0.03, affine=True, track_running_stats=True)
  (act): SiLU(inplace=True)
)"]
	"backbone_w.4.m.1.m.0.cv1.conv" [label="Conv2d(96, 96, kernel_size=(3, 3), stride=(1, 1), padding=(1, 1), bias=False)"]
	"backbone_w.4.m.1.m.0.cv1.bn" [label="BatchNorm2d(96, eps=0.001, momentum=0.03, affine=True, track_running_stats=True)"]
…
	"head.22.m.0.cv1" [label="Conv(
  (conv): Conv2d(384, 192, kernel_size=(1, 1), stride=(1, 1), bias=False)
  (bn): BatchNorm2d(192, eps=0.001, momentum=0.03, affine=True, track_running_stats=True)
  (act): SiLU(inplace=True)
)"]
	"head.22.m.0.cv1.conv" [label="Conv2d(384, 192, kernel_size=(1, 1), stride=(1, 1), bias=False)"]
	"head.22.m.0.cv1.bn" [label="BatchNorm2d(192, eps=0.001, momentum=0.03, affine=True, track_running_stats=True)"]
	"head.22.m.0.cv1.act" [label="SiLU(inplace=True)"]
	"head.22.m.0.cv2" [label="Conv(
  (conv): Conv2d(384, 192, kernel_size=(1, 1), stride=(1, 1), bias=False)
  (bn): BatchNorm2d(192, eps=0.001, momentum=0.03, affine=True, track_running_stats=True)
  (act): SiLU(inplace=True)
)"]
	"head.22.m.0.cv2.conv" [label="Conv2d(384, 192, kernel_size=(1, 1), stride=(1, 1), bias=False)"]
	"head.22.m.0.cv2.bn" [label="BatchNorm2d(192, eps=0.001, momentum=0.03, affine=True, track_running_stats=True)"]
	"head.22.m.0.cv2.act" [label="SiLU(inplace=True)"]
	"head.22.m.0.cv3" [label="Conv(
  (conv): Conv2d(384, 384, kernel_size=(1, 1), stride=(1, 1), bias=False)
  (bn): BatchNorm2d(384, eps=0.001, momentum=0.03, affine=True, track_running_stats=True)
  (act): SiLU(inplace=True)
)"]
	"head.22.m.0.cv3.conv" [label="Conv2d(384, 384, kernel_size=(1, 1), stride=(1, 1), bias=False)"]
	"head.22.m.0.cv3.bn" [label="BatchNorm2d(384, eps=0.001, momentum=0.03, affine=True, track_running_stats=True)"]
	"head.22.m.0.cv3.act" [label="SiLU(inplace=True)"]
	"head.22.m.0.m" [label="Sequential(
  (0): Bottleneck(
    (cv1): Conv(
      (conv): Conv2d(192, 192, kernel_size=(3, 3), stride=(1, 1), padding=(1, 1), bias=False)
      (bn): BatchNorm2d(192, eps=0.001, momentum=0.03, affine=True, track_running_stats=True)
      (act): SiLU(inplace=True)
    )
    (cv2): Conv(
      (conv): Conv2d(192, 192, kernel_size=(3, 3), stride=(1, 1), padding=(1, 1), bias=False)
      (bn): BatchNorm2d(192, eps=0.001, momentum=0.03, affine=True, track_running_stats=True)
      (act): SiLU(inplace=True)
    )
  )
  (1): Bottleneck(
    (cv1): Conv(
      (conv): Conv2d(192, 192, kernel_size=(3, 3), stride=(1, 1), padding=(1, 1), bias=False)
      (bn): BatchNorm2d(192, eps=0.001, momentum=0.03, affine=True, track_running_stats=True)
      (act): SiLU(inplace=True)
    )
    (cv2): Conv(
      (conv): Conv2d(192, 192, kernel_size=(3, 3), stride=(1, 1), padding=(1, 1), bias=False)
      (bn): BatchNorm2d(192, eps=0.001, momentum=0.03, affine=True, track_running_stats=True)
      (act): SiLU(inplace=True)
    )
  )
)"]
	"head.22.m.0.m.0" [label="Bottleneck(
  (cv1): Conv(
    (conv): Conv2d(192, 192, kernel_size=(3, 3), stride=(1, 1), padding=(1, 1), bias=False)
    (bn): BatchNorm2d(192, eps=0.001, momentum=0.03, affine=True, track_running_stats=True)
    (act): SiLU(inplace=True)
  )
  (cv2): Conv(
    (conv): Conv2d(192, 192, kernel_size=(3, 3), stride=(1, 1), padding=(1, 1), bias=False)
    (bn): BatchNorm2d(192, eps=0.001, momentum=0.03, affine=True, track_running_stats=True)
    (act): SiLU(inplace=True)
  )
)"]
	"head.22.m.0.m.0.cv1" [label="Conv(
  (conv): Conv2d(192, 192, kernel_size=(3, 3), stride=(1, 1), padding=(1, 1), bias=False)
  (bn): BatchNorm2d(192, eps=0.001, momentum=0.03, affine=True, track_running_stats=True)
  (act): SiLU(inplace=True)
)"]
	"head.22.m.0.m.0.cv1.conv" [label="Conv2d(192, 192, kernel_size=(3, 3), stride=(1, 1), padding=(1, 1), bias=False)"]
	"head.22.m.0.m.0.cv1.bn" [label="BatchNorm2d(192, eps=0.001, momentum=0.03, affine=True, track_running_stats=True)"]
	"head.22.m.0.m.0.cv1.act" [label="SiLU(inplace=True)"]
	"head.22.m.0.m.0.cv2" [label="Conv(
  (conv): Conv2d(192, 192, kernel_size=(3, 3), stride=(1, 1), padding=(1, 1), bias=False)
  (bn): BatchNorm2d(192, eps=0.001, momentum=0.03, affine=True, track_running_stats=True)
  (act): SiLU(inplace=True)
)"]
	"head.22.m.0.m.0.cv2.conv" [label="Conv2d(192, 192, kernel_size=(3, 3), stride=(1, 1), padding=(1, 1), bias=False)"]
	"head.22.m.0.m.0.cv2.bn" [label="BatchNorm2d(192, eps=0.001, momentum=0.03, affine=True, track_running_stats=True)"]
	"head.22.m.0.m.0.cv2.act" [label="SiLU(inplace=True)"]
	"head.22.m.0.m.1" [label="Bottleneck(
  (cv1): Conv(
    (conv): Conv2d(192, 192, kernel_size=(3, 3), stride=(1, 1), padding=(1, 1), bias=False)
    (bn): BatchNorm2d(192, eps=0.001, momentum=0.03, affine=True, track_running_stats=True)
    (act): SiLU(inplace=True)
  )
  (cv2): Conv(
    (conv): Conv2d(192, 192, kernel_size=(3, 3), stride=(1, 1), padding=(1, 1), bias=False)
    (bn): BatchNorm2d(192, eps=0.001, momentum=0.03, affine=True, track_running_stats=True)
    (act): SiLU(inplace=True)
  )
)"]
	"head.22.m.0.m.1.cv1" [label="Conv(
  (conv): Conv2d(192, 192, kernel_size=(3, 3), stride=(1, 1), padding=(1, 1), bias=False)
  (bn): BatchNorm2d(192, eps=0.001, momentum=0.03, affine=True, track_running_stats=True)
  (act): SiLU(inplace=True)
)"]
	"head.22.m.0.m.1.cv1.conv" [label="Conv2d(192, 192, kernel_size=(3, 3), stride=(1, 1), padding=(1, 1), bias=False)"]
	"head.22.m.0.m.1.cv1.bn" [label="BatchNorm2d(192, eps=0.001, momentum=0.03, affine=True, track_running_stats=True)"]
	"head.22.m.0.m.1.cv1.act" [label="SiLU(inplace=True)"]
	"head.22.m.0.m.1.cv2" [label="Conv(
  (conv): Conv2d(192, 192, kernel_size=(3, 3), stride=(1, 1), padding=(1, 1), bias=False)
  (bn): BatchNorm2d(192, eps=0.001, momentum=0.03, affine=True, track_running_stats=True)
  (act): SiLU(inplace=True)
)"]
	"head.22.m.0.m.1.cv2.conv" [label="Conv2d(192, 192, kernel_size=(3, 3), stride=(1, 1), padding=(1, 1), bias=False)"]
	"head.22.m.0.m.1.cv2.bn" [label="BatchNorm2d(192, eps=0.001, momentum=0.03, affine=True, track_running_stats=True)"]
	"head.22.m.0.m.1.cv2.act" [label="SiLU(inplace=True)"]
	"head.22.m.1" [label="C3k(
  (cv1): Conv(
    (conv): Conv2d(384, 192, kernel_size=(1, 1), stride=(1, 1), bias=False)
    (bn): BatchNorm2d(192, eps=0.001, momentum=0.03, affine=True, track_running_stats=True)
    (act): SiLU(inplace=True)
  )
  (cv2): Conv(
    (conv): Conv2d(384, 192, kernel_size=(1, 1), stride=(1, 1), bias=False)
    (bn): BatchNorm2d(192, eps=0.001, momentum=0.03, affine=True, track_running_stats=True)
    (act): SiLU(inplace=True)
  )
  (cv3): Conv(
    (conv): Conv2d(384, 384, kernel_size=(1, 1), stride=(1, 1), bias=False)
    (bn): BatchNorm2d(384, eps=0.001, momentum=0.03, affine=True, track_running_stats=True)
    (act): SiLU(inplace=True)
  )
  (m): Sequential(
    (0): Bottleneck(
      (cv1): Conv(
        (conv): Conv2d(192, 192, kernel_size=(3, 3), stride=(1, 1), padding=(1, 1), bias=False)
        (bn): BatchNorm2d(192, eps=0.001, momentum=0.03, affine=True, track_running_stats=True)
        (act): SiLU(inplace=True)
      )
      (cv2): Conv(
        (conv): Conv2d(192, 192, kernel_size=(3, 3), stride=(1, 1), padding=(1, 1), bias=False)
        (bn): BatchNorm2d(192, eps=0.001, momentum=0.03, affine=True, track_running_stats=True)
        (act): SiLU(inplace=True)
      )
    )
    (1): Bottleneck(
      (cv1): Conv(
        (conv): Conv2d(192, 192, kernel_size=(3, 3), stride=(1, 1), padding=(1, 1), bias=False)
        (bn): BatchNorm2d(192, eps=0.001, momentum=0.03, affine=True, track_running_stats=True)
        (act): SiLU(inplace=True)
      )
      (cv2): Conv(
        (conv): Conv2d(192, 192, kernel_size=(3, 3), stride=(1, 1), padding=(1, 1), bias=False)
        (bn): BatchNorm2d(192, eps=0.001, momentum=0.03, affine=True, track_running_stats=True)
        (act): SiLU(inplace=True)
      )
    )
  )
)"]
	"head.22.m.1.cv1" [label="Conv(
  (conv): Conv2d(384, 192, kernel_size=(1, 1), stride=(1, 1), bias=False)
  (bn): BatchNorm2d(192, eps=0.001, momentum=0.03, affine=True, track_running_stats=True)
  (act): SiLU(inplace=True)
)"]
	"head.22.m.1.cv1.conv" [label="Conv2d(384, 192, kernel_size=(1, 1), stride=(1, 1), bias=False)"]
	"head.22.m.1.cv1.bn" [label="BatchNorm2d(192, eps=0.001, momentum=0.03, affine=True, track_running_stats=True)"]
	"head.22.m.1.cv1.act" [label="SiLU(inplace=True)"]
	"head.22.m.1.cv2" [label="Conv(
  (conv): Conv2d(384, 192, kernel_size=(1, 1), stride=(1, 1), bias=False)
  (bn): BatchNorm2d(192, eps=0.001, momentum=0.03, affine=True, track_running_stats=True)
  (act): SiLU(inplace=True)
)"]
	"head.22.m.1.cv2.conv" [label="Conv2d(384, 192, kernel_size=(1, 1), stride=(1, 1), bias=False)"]
	"head.22.m.1.cv2.bn" [label="BatchNorm2d(192, eps=0.001, momentum=0.03, affine=True, track_running_stats=True)"]
	"head.22.m.1.cv2.act" [label="SiLU(inplace=True)"]
	"head.22.m.1.cv3" [label="Conv(
  (conv): Conv2d(384, 384, kernel_size=(1, 1), stride=(1, 1), bias=False)
  (bn): BatchNorm2d(384, eps=0.001, momentum=0.03, affine=True, track_running_stats=True)
  (act): SiLU(inplace=True)
)"]
	"head.22.m.1.cv3.conv" [label="Conv2d(384, 384, kernel_size=(1, 1), stride=(1, 1), bias=False)"]
	"head.22.m.1.cv3.bn" [label="BatchNorm2d(384, eps=0.001, momentum=0.03, affine=True, track_running_stats=True)"]
	"head.22.m.1.cv3.act" [label="SiLU(inplace=True)"]
	"head.22.m.1.m" [label="Sequential(
  (0): Bottleneck(
    (cv1): Conv(
      (conv): Conv2d(192, 192, kernel_size=(3, 3), stride=(1, 1), padding=(1, 1), bias=False)
      (bn): BatchNorm2d(192, eps=0.001, momentum=0.03, affine=True, track_running_stats=True)
      (act): SiLU(inplace=True)
    )
    (cv2): Conv(
      (conv): Conv2d(192, 192, kernel_size=(3, 3), stride=(1, 1), padding=(1, 1), bias=False)
      (bn): BatchNorm2d(192, eps=0.001, momentum=0.03, affine=True, track_running_stats=True)
      (act): SiLU(inplace=True)
    )
  )
  (1): Bottleneck(
    (cv1): Conv(
      (conv): Conv2d(192, 192, kernel_size=(3, 3), stride=(1, 1), padding=(1, 1), bias=False)
      (bn): BatchNorm2d(192, eps=0.001, momentum=0.03, affine=True, track_running_stats=True)
      (act): SiLU(inplace=True)
    )
    (cv2): Conv(
      (conv): Conv2d(192, 192, kernel_size=(3, 3), stride=(1, 1), padding=(1, 1), bias=False)
      (bn): BatchNorm2d(192, eps=0.001, momentum=0.03, affine=True, track_running_stats=True)
      (act): SiLU(inplace=True)
    )
  )
)"]
	"head.22.m.1.m.0" [label="Bottleneck(
  (cv1): Conv(
    (conv): Conv2d(192, 192, kernel_size=(3, 3), stride=(1, 1), padding=(1, 1), bias=False)
    (bn): BatchNorm2d(192, eps=0.001, momentum=0.03, affine=True, track_running_stats=True)
    (act): SiLU(inplace=True)
  )
  (cv2): Conv(
    (conv): Conv2d(192, 192, kernel_size=(3, 3), stride=(1, 1), padding=(1, 1), bias=False)
    (bn): BatchNorm2d(192, eps=0.001, momentum=0.03, affine=True, track_running_stats=True)
    (act): SiLU(inplace=True)
  )
)"]
	"head.22.m.1.m.0.cv1" [label="Conv(
  (conv): Conv2d(192, 192, kernel_size=(3, 3), stride=(1, 1), padding=(1, 1), bias=False)
  (bn): BatchNorm2d(192, eps=0.001, momentum=0.03, affine=True, track_running_stats=True)
  (act): SiLU(inplace=True)
)"]
	"head.22.m.1.m.0.cv1.conv" [label="Conv2d(192, 192, kernel_size=(3, 3), stride=(1, 1), padding=(1, 1), bias=False)"]
	"head.22.m.1.m.0.cv1.bn" [label="BatchNorm2d(192, eps=0.001, momentum=0.03, affine=True, track_running_stats=True)"]
	"head.22.m.1.m.0.cv1.act" [label="SiLU(inplace=True)"]
	"head.22.m.1.m.0.cv2" [label="Conv(
  (conv): Conv2d(192, 192, kernel_size=(3, 3), stride=(1, 1), padding=(1, 1), bias=False)
  (bn): BatchNorm2d(192, eps=0.001, momentum=0.03, affine=True, track_running_stats=True)
  (act): SiLU(inplace=True)
)"]
	"head.22.m.1.m.0.cv2.conv" [label="Conv2d(192, 192, kernel_size=(3, 3), stride=(1, 1), padding=(1, 1), bias=False)"]
	"head.22.m.1.m.0.cv2.bn" [label="BatchNorm2d(192, eps=0.001, momentum=0.03, affine=True, track_running_stats=True)"]
	"head.22.m.1.m.0.cv2.act" [label="SiLU(inplace=True)"]
	"head.22.m.1.m.1" [label="Bottleneck(
  (cv1): Conv(
    (conv): Conv2d(192, 192, kernel_size=(3, 3), stride=(1, 1), padding=(1, 1), bias=False)
    (bn): BatchNorm2d(192, eps=0.001, momentum=0.03, affine=True, track_running_stats=True)
    (act): SiLU(inplace=True)
  )
  (cv2): Conv(
    (conv): Conv2d(192, 192, kernel_size=(3, 3), stride=(1, 1), padding=(1, 1), bias=False)
    (bn): BatchNorm2d(192, eps=0.001, momentum=0.03, affine=True, track_running_stats=True)
    (act): SiLU(inplace=True)
  )
)"]
	"head.22.m.1.m.1.cv1" [label="Conv(
  (conv): Conv2d(192, 192, kernel_size=(3, 3), stride=(1, 1), padding=(1, 1), bias=False)
  (bn): BatchNorm2d(192, eps=0.001, momentum=0.03, affine=True, track_running_stats=True)
  (act): SiLU(inplace=True)
)"]
	"head.22.m.1.m.1.cv1.conv" [label="Conv2d(192, 192, kernel_size=(3, 3), stride=(1, 1), padding=(1, 1), bias=False)"]
	"head.22.m.1.m.1.cv1.bn" [label="BatchNorm2d(192, eps=0.001, momentum=0.03, affine=True, track_running_stats=True)"]
	"head.22.m.1.m.1.cv1.act" [label="SiLU(inplace=True)"]
	"head.22.m.1.m.1.cv2" [label="Conv(
  (conv): Conv2d(192, 192, kernel_size=(3, 3), stride=(1, 1), padding=(1, 1), bias=False)
  (bn): BatchNorm2d(192, eps=0.001, momentum=0.03, affine=True, track_running_stats=True)
  (act): SiLU(inplace=True)
)"]
	"head.22.m.1.m.1.cv2.conv" [label="Conv2d(192, 192, kernel_size=(3, 3), stride=(1, 1), padding=(1, 1), bias=False)"]
	"head.22.m.1.m.1.cv2.bn" [label="BatchNorm2d(192, eps=0.001, momentum=0.03, affine=True, track_running_stats=True)"]
	"head.22.m.1.m.1.cv2.act" [label="SiLU(inplace=True)"]
	"head.23" [label="Segment(
  (cv2): ModuleList(
    (0): Sequential(
      (0): Conv(
        (conv): Conv2d(384, 96, kernel_size=(3, 3), stride=(1, 1), padding=(1, 1), bias=False)
        (bn): BatchNorm2d(96, eps=0.001, momentum=0.03, affine=True, track_running_stats=True)
        (act): SiLU(inplace=True)
      )
      (1): Conv(
        (conv): Conv2d(96, 96, kernel_size=(3, 3), stride=(1, 1), padding=(1, 1), bias=False)
        (bn): BatchNorm2d(96, eps=0.001, momentum=0.03, affine=True, track_running_stats=True)
        (act): SiLU(inplace=True)
      )
      (2): Conv2d(96, 64, kernel_size=(1, 1), stride=(1, 1))
    )
    (1-2): 2 x Sequential(
      (0): Conv(
        (conv): Conv2d(768, 96, kernel_size=(3, 3), stride=(1, 1), padding=(1, 1), bias=False)
        (bn): BatchNorm2d(96, eps=0.001, momentum=0.03, affine=True, track_running_stats=True)
        (act): SiLU(inplace=True)
      )
      (1): Conv(
        (conv): Conv2d(96, 96, kernel_size=(3, 3), stride=(1, 1), padding=(1, 1), bias=False)
        (bn): BatchNorm2d(96, eps=0.001, momentum=0.03, affine=True, track_running_stats=True)
        (act): SiLU(inplace=True)
      )
      (2): Conv2d(96, 64, kernel_size=(1, 1), stride=(1, 1))
    )
  )
  (cv3): ModuleList(
    (0): Sequential(
      (0): Sequential(
        (0): DWConv(
          (conv): Conv2d(384, 384, kernel_size=(3, 3), stride=(1, 1), padding=(1, 1), groups=384, bias=False)
          (bn): BatchNorm2d(384, eps=0.001, momentum=0.03, affine=True, track_running_stats=True)
          (act): SiLU(inplace=True)
        )
        (1): Conv(
          (conv): Conv2d(384, 384, kernel_size=(1, 1), stride=(1, 1), bias=False)
          (bn): BatchNorm2d(384, eps=0.001, momentum=0.03, affine=True, track_running_stats=True)
          (act): SiLU(inplace=True)
        )
      )
      (1): Sequential(
        (0): DWConv(
          (conv): Conv2d(384, 384, kernel_size=(3, 3), stride=(1, 1), padding=(1, 1), groups=384, bias=False)
          (bn): BatchNorm2d(384, eps=0.001, momentum=0.03, affine=True, track_running_stats=True)
          (act): SiLU(inplace=True)
        )
        (1): Conv(
          (conv): Conv2d(384, 384, kernel_size=(1, 1), stride=(1, 1), bias=False)
          (bn): BatchNorm2d(384, eps=0.001, momentum=0.03, affine=True, track_running_stats=True)
          (act): SiLU(inplace=True)
        )
      )
      (2): Conv2d(384, 80, kernel_size=(1, 1), stride=(1, 1))
    )
    (1-2): 2 x Sequential(
      (0): Sequential(
        (0): DWConv(
          (conv): Conv2d(768, 768, kernel_size=(3, 3), stride=(1, 1), padding=(1, 1), groups=768, bias=False)
          (bn): BatchNorm2d(768, eps=0.001, momentum=0.03, affine=True, track_running_stats=True)
          (act): SiLU(inplace=True)
        )
        (1): Conv(
          (conv): Conv2d(768, 384, kernel_size=(1, 1), stride=(1, 1), bias=False)
          (bn): BatchNorm2d(384, eps=0.001, momentum=0.03, affine=True, track_running_stats=True)
          (act): SiLU(inplace=True)
        )
      )
      (1): Sequential(
        (0): DWConv(
          (conv): Conv2d(384, 384, kernel_size=(3, 3), stride=(1, 1), padding=(1, 1), groups=384, bias=False)
          (bn): BatchNorm2d(384, eps=0.001, momentum=0.03, affine=True, track_running_stats=True)
          (act): SiLU(inplace=True)
        )
        (1): Conv(
          (conv): Conv2d(384, 384, kernel_size=(1, 1), stride=(1, 1), bias=False)
          (bn): BatchNorm2d(384, eps=0.001, momentum=0.03, affine=True, track_running_stats=True)
          (act): SiLU(inplace=True)
        )
      )
      (2): Conv2d(384, 80, kernel_size=(1, 1), stride=(1, 1))
    )
  )
  (dfl): DFL(
    (conv): Conv2d(16, 1, kernel_size=(1, 1), stride=(1, 1), bias=False)
  )
  (proto): Proto(
    (cv1): Conv(
      (conv): Conv2d(384, 384, kernel_size=(3, 3), stride=(1, 1), padding=(1, 1), bias=False)
      (bn): BatchNorm2d(384, eps=0.001, momentum=0.03, affine=True, track_running_stats=True)
      (act): SiLU(inplace=True)
    )
    (upsample): ConvTranspose2d(384, 384, kernel_size=(2, 2), stride=(2, 2))
    (cv2): Conv(
      (conv): Conv2d(384, 384, kernel_size=(3, 3), stride=(1, 1), padding=(1, 1), bias=False)
      (bn): BatchNorm2d(384, eps=0.001, momentum=0.03, affine=True, track_running_stats=True)
      (act): SiLU(inplace=True)
    )
    (cv3): Conv(
      (conv): Conv2d(384, 32, kernel_size=(1, 1), stride=(1, 1), bias=False)
      (bn): BatchNorm2d(32, eps=0.001, momentum=0.03, affine=True, track_running_stats=True)
      (act): SiLU(inplace=True)
    )
  )
  (cv4): ModuleList(
    (0): Sequential(
      (0): Conv(
        (conv): Conv2d(384, 96, kernel_size=(3, 3), stride=(1, 1), padding=(1, 1), bias=False)
        (bn): BatchNorm2d(96, eps=0.001, momentum=0.03, affine=True, track_running_stats=True)
        (act): SiLU(inplace=True)
      )
      (1): Conv(
        (conv): Conv2d(96, 96, kernel_size=(3, 3), stride=(1, 1), padding=(1, 1), bias=False)
        (bn): BatchNorm2d(96, eps=0.001, momentum=0.03, affine=True, track_running_stats=True)
        (act): SiLU(inplace=True)
      )
      (2): Conv2d(96, 32, kernel_size=(1, 1), stride=(1, 1))
    )
    (1-2): 2 x Sequential(
      (0): Conv(
        (conv): Conv2d(768, 96, kernel_size=(3, 3), stride=(1, 1), padding=(1, 1), bias=False)
        (bn): BatchNorm2d(96, eps=0.001, momentum=0.03, affine=True, track_running_stats=True)
        (act): SiLU(inplace=True)
      )
      (1): Conv(
        (conv): Conv2d(96, 96, kernel_size=(3, 3), stride=(1, 1), padding=(1, 1), bias=False)
        (bn): BatchNorm2d(96, eps=0.001, momentum=0.03, affine=True, track_running_stats=True)
        (act): SiLU(inplace=True)
      )
      (2): Conv2d(96, 32, kernel_size=(1, 1), stride=(1, 1))
    )
  )
)"]
	"head.23.cv2" [label="ModuleList(
  (0): Sequential(
    (0): Conv(
      (conv): Conv2d(384, 96, kernel_size=(3, 3), stride=(1, 1), padding=(1, 1), bias=False)
      (bn): BatchNorm2d(96, eps=0.001, momentum=0.03, affine=True, track_running_stats=True)
      (act): SiLU(inplace=True)
    )
    (1): Conv(
      (conv): Conv2d(96, 96, kernel_size=(3, 3), stride=(1, 1), padding=(1, 1), bias=False)
      (bn): BatchNorm2d(96, eps=0.001, momentum=0.03, affine=True, track_running_stats=True)
      (act): SiLU(inplace=True)
    )
    (2): Conv2d(96, 64, kernel_size=(1, 1), stride=(1, 1))
  )
  (1-2): 2 x Sequential(
    (0): Conv(
      (conv): Conv2d(768, 96, kernel_size=(3, 3), stride=(1, 1), padding=(1, 1), bias=False)
      (bn): BatchNorm2d(96, eps=0.001, momentum=0.03, affine=True, track_running_stats=True)
      (act): SiLU(inplace=True)
    )
    (1): Conv(
      (conv): Conv2d(96, 96, kernel_size=(3, 3), stride=(1, 1), padding=(1, 1), bias=False)
      (bn): BatchNorm2d(96, eps=0.001, momentum=0.03, affine=True, track_running_stats=True)
      (act): SiLU(inplace=True)
    )
    (2): Conv2d(96, 64, kernel_size=(1, 1), stride=(1, 1))
  )
)"]
	"head.23.cv2.0" [label="Sequential(
  (0): Conv(
    (conv): Conv2d(384, 96, kernel_size=(3, 3), stride=(1, 1), padding=(1, 1), bias=False)
    (bn): BatchNorm2d(96, eps=0.001, momentum=0.03, affine=True, track_running_stats=True)
    (act): SiLU(inplace=True)
  )
  (1): Conv(
    (conv): Conv2d(96, 96, kernel_size=(3, 3), stride=(1, 1), padding=(1, 1), bias=False)
    (bn): BatchNorm2d(96, eps=0.001, momentum=0.03, affine=True, track_running_stats=True)
    (act): SiLU(inplace=True)
  )
  (2): Conv2d(96, 64, kernel_size=(1, 1), stride=(1, 1))
)"]
	"head.23.cv2.0.0" [label="Conv(
  (conv): Conv2d(384, 96, kernel_size=(3, 3), stride=(1, 1), padding=(1, 1), bias=False)
  (bn): BatchNorm2d(96, eps=0.001, momentum=0.03, affine=True, track_running_stats=True)
  (act): SiLU(inplace=True)
)"]
	"head.23.cv2.0.0.conv" [label="Conv2d(384, 96, kernel_size=(3, 3), stride=(1, 1), padding=(1, 1), bias=False)"]
	"head.23.cv2.0.0.bn" [label="BatchNorm2d(96, eps=0.001, momentum=0.03, affine=True, track_running_stats=True)"]
	"head.23.cv2.0.0.act" [label="SiLU(inplace=True)"]
	"head.23.cv2.0.1" [label="Conv(
  (conv): Conv2d(96, 96, kernel_size=(3, 3), stride=(1, 1), padding=(1, 1), bias=False)
  (bn): BatchNorm2d(96, eps=0.001, momentum=0.03, affine=True, track_running_stats=True)
  (act): SiLU(inplace=True)
)"]
	"head.23.cv2.0.1.conv" [label="Conv2d(96, 96, kernel_size=(3, 3), stride=(1, 1), padding=(1, 1), bias=False)"]
	"head.23.cv2.0.1.bn" [label="BatchNorm2d(96, eps=0.001, momentum=0.03, affine=True, track_running_stats=True)"]
	"head.23.cv2.0.1.act" [label="SiLU(inplace=True)"]
	"head.23.cv2.0.2" [label="Conv2d(96, 64, kernel_size=(1, 1), stride=(1, 1))"]
	"head.23.cv2.1" [label="Sequential(
  (0): Conv(
    (conv): Conv2d(768, 96, kernel_size=(3, 3), stride=(1, 1), padding=(1, 1), bias=False)
    (bn): BatchNorm2d(96, eps=0.001, momentum=0.03, affine=True, track_running_stats=True)
    (act): SiLU(inplace=True)
  )
  (1): Conv(
    (conv): Conv2d(96, 96, kernel_size=(3, 3), stride=(1, 1), padding=(1, 1), bias=False)
    (bn): BatchNorm2d(96, eps=0.001, momentum=0.03, affine=True, track_running_stats=True)
    (act): SiLU(inplace=True)
  )
  (2): Conv2d(96, 64, kernel_size=(1, 1), stride=(1, 1))
)"]
	"head.23.cv2.1.0" [label="Conv(
  (conv): Conv2d(768, 96, kernel_size=(3, 3), stride=(1, 1), padding=(1, 1), bias=False)
  (bn): BatchNorm2d(96, eps=0.001, momentum=0.03, affine=True, track_running_stats=True)
  (act): SiLU(inplace=True)
)"]
	"head.23.cv2.1.0.conv" [label="Conv2d(768, 96, kernel_size=(3, 3), stride=(1, 1), padding=(1, 1), bias=False)"]
	"head.23.cv2.1.0.bn" [label="BatchNorm2d(96, eps=0.001, momentum=0.03, affine=True, track_running_stats=True)"]
	"head.23.cv2.1.0.act" [label="SiLU(inplace=True)"]
	"head.23.cv2.1.1" [label="Conv(
  (conv): Conv2d(96, 96, kernel_size=(3, 3), stride=(1, 1), padding=(1, 1), bias=False)
  (bn): BatchNorm2d(96, eps=0.001, momentum=0.03, affine=True, track_running_stats=True)
  (act): SiLU(inplace=True)
)"]
	"head.23.cv2.1.1.conv" [label="Conv2d(96, 96, kernel_size=(3, 3), stride=(1, 1), padding=(1, 1), bias=False)"]
	"head.23.cv2.1.1.bn" [label="BatchNorm2d(96, eps=0.001, momentum=0.03, affine=True, track_running_stats=True)"]
	"head.23.cv2.1.1.act" [label="SiLU(inplace=True)"]
	"head.23.cv2.1.2" [label="Conv2d(96, 64, kernel_size=(1, 1), stride=(1, 1))"]
	"head.23.cv2.2" [label="Sequential(
  (0): Conv(
    (conv): Conv2d(768, 96, kernel_size=(3, 3), stride=(1, 1), padding=(1, 1), bias=False)
    (bn): BatchNorm2d(96, eps=0.001, momentum=0.03, affine=True, track_running_stats=True)
    (act): SiLU(inplace=True)
  )
  (1): Conv(
    (conv): Conv2d(96, 96, kernel_size=(3, 3), stride=(1, 1), padding=(1, 1), bias=False)
    (bn): BatchNorm2d(96, eps=0.001, momentum=0.03, affine=True, track_running_stats=True)
    (act): SiLU(inplace=True)
  )
  (2): Conv2d(96, 64, kernel_size=(1, 1), stride=(1, 1))
)"]
	"head.23.cv2.2.0" [label="Conv(
  (conv): Conv2d(768, 96, kernel_size=(3, 3), stride=(1, 1), padding=(1, 1), bias=False)
  (bn): BatchNorm2d(96, eps=0.001, momentum=0.03, affine=True, track_running_stats=True)
  (act): SiLU(inplace=True)
)"]
	"head.23.cv2.2.0.conv" [label="Conv2d(768, 96, kernel_size=(3, 3), stride=(1, 1), padding=(1, 1), bias=False)"]
	"head.23.cv2.2.0.bn" [label="BatchNorm2d(96, eps=0.001, momentum=0.03, affine=True, track_running_stats=True)"]
	"head.23.cv2.2.0.act" [label="SiLU(inplace=True)"]
	"head.23.cv2.2.1" [label="Conv(
  (conv): Conv2d(96, 96, kernel_size=(3, 3), stride=(1, 1), padding=(1, 1), bias=False)
  (bn): BatchNorm2d(96, eps=0.001, momentum=0.03, affine=True, track_running_stats=True)
  (act): SiLU(inplace=True)
)"]
	"head.23.cv2.2.1.conv" [label="Conv2d(96, 96, kernel_size=(3, 3), stride=(1, 1), padding=(1, 1), bias=False)"]
	"head.23.cv2.2.1.bn" [label="BatchNorm2d(96, eps=0.001, momentum=0.03, affine=True, track_running_stats=True)"]
	"head.23.cv2.2.1.act" [label="SiLU(inplace=True)"]
	"head.23.cv2.2.2" [label="Conv2d(96, 64, kernel_size=(1, 1), stride=(1, 1))"]
	"head.23.cv3" [label="ModuleList(
  (0): Sequential(
    (0): Sequential(
      (0): DWConv(
        (conv): Conv2d(384, 384, kernel_size=(3, 3), stride=(1, 1), padding=(1, 1), groups=384, bias=False)
        (bn): BatchNorm2d(384, eps=0.001, momentum=0.03, affine=True, track_running_stats=True)
        (act): SiLU(inplace=True)
      )
      (1): Conv(
        (conv): Conv2d(384, 384, kernel_size=(1, 1), stride=(1, 1), bias=False)
        (bn): BatchNorm2d(384, eps=0.001, momentum=0.03, affine=True, track_running_stats=True)
        (act): SiLU(inplace=True)
      )
    )
    (1): Sequential(
      (0): DWConv(
        (conv): Conv2d(384, 384, kernel_size=(3, 3), stride=(1, 1), padding=(1, 1), groups=384, bias=False)
        (bn): BatchNorm2d(384, eps=0.001, momentum=0.03, affine=True, track_running_stats=True)
        (act): SiLU(inplace=True)
      )
      (1): Conv(
        (conv): Conv2d(384, 384, kernel_size=(1, 1), stride=(1, 1), bias=False)
        (bn): BatchNorm2d(384, eps=0.001, momentum=0.03, affine=True, track_running_stats=True)
        (act): SiLU(inplace=True)
      )
    )
    (2): Conv2d(384, 80, kernel_size=(1, 1), stride=(1, 1))
  )
  (1-2): 2 x Sequential(
    (0): Sequential(
      (0): DWConv(
        (conv): Conv2d(768, 768, kernel_size=(3, 3), stride=(1, 1), padding=(1, 1), groups=768, bias=False)
        (bn): BatchNorm2d(768, eps=0.001, momentum=0.03, affine=True, track_running_stats=True)
        (act): SiLU(inplace=True)
      )
      (1): Conv(
        (conv): Conv2d(768, 384, kernel_size=(1, 1), stride=(1, 1), bias=False)
        (bn): BatchNorm2d(384, eps=0.001, momentum=0.03, affine=True, track_running_stats=True)
        (act): SiLU(inplace=True)
      )
    )
    (1): Sequential(
      (0): DWConv(
        (conv): Conv2d(384, 384, kernel_size=(3, 3), stride=(1, 1), padding=(1, 1), groups=384, bias=False)
        (bn): BatchNorm2d(384, eps=0.001, momentum=0.03, affine=True, track_running_stats=True)
        (act): SiLU(inplace=True)
      )
      (1): Conv(
        (conv): Conv2d(384, 384, kernel_size=(1, 1), stride=(1, 1), bias=False)
        (bn): BatchNorm2d(384, eps=0.001, momentum=0.03, affine=True, track_running_stats=True)
        (act): SiLU(inplace=True)
      )
    )
    (2): Conv2d(384, 80, kernel_size=(1, 1), stride=(1, 1))
  )
)"]
	"head.23.cv3.0" [label="Sequential(
  (0): Sequential(
    (0): DWConv(
      (conv): Conv2d(384, 384, kernel_size=(3, 3), stride=(1, 1), padding=(1, 1), groups=384, bias=False)
      (bn): BatchNorm2d(384, eps=0.001, momentum=0.03, affine=True, track_running_stats=True)
      (act): SiLU(inplace=True)
    )
    (1): Conv(
      (conv): Conv2d(384, 384, kernel_size=(1, 1), stride=(1, 1), bias=False)
      (bn): BatchNorm2d(384, eps=0.001, momentum=0.03, affine=True, track_running_stats=True)
      (act): SiLU(inplace=True)
    )
  )
  (1): Sequential(
    (0): DWConv(
      (conv): Conv2d(384, 384, kernel_size=(3, 3), stride=(1, 1), padding=(1, 1), groups=384, bias=False)
      (bn): BatchNorm2d(384, eps=0.001, momentum=0.03, affine=True, track_running_stats=True)
      (act): SiLU(inplace=True)
    )
    (1): Conv(
      (conv): Conv2d(384, 384, kernel_size=(1, 1), stride=(1, 1), bias=False)
      (bn): BatchNorm2d(384, eps=0.001, momentum=0.03, affine=True, track_running_stats=True)
      (act): SiLU(inplace=True)
    )
  )
  (2): Conv2d(384, 80, kernel_size=(1, 1), stride=(1, 1))
)"]
	"head.23.cv3.0.0" [label="Sequential(
  (0): DWConv(
    (conv): Conv2d(384, 384, kernel_size=(3, 3), stride=(1, 1), padding=(1, 1), groups=384, bias=False)
    (bn): BatchNorm2d(384, eps=0.001, momentum=0.03, affine=True, track_running_stats=True)
    (act): SiLU(inplace=True)
  )
  (1): Conv(
    (conv): Conv2d(384, 384, kernel_size=(1, 1), stride=(1, 1), bias=False)
    (bn): BatchNorm2d(384, eps=0.001, momentum=0.03, affine=True, track_running_stats=True)
    (act): SiLU(inplace=True)
  )
)"]
	"head.23.cv3.0.0.0" [label="DWConv(
  (conv): Conv2d(384, 384, kernel_size=(3, 3), stride=(1, 1), padding=(1, 1), groups=384, bias=False)
  (bn): BatchNorm2d(384, eps=0.001, momentum=0.03, affine=True, track_running_stats=True)
  (act): SiLU(inplace=True)
)"]
	"head.23.cv3.0.0.0.conv" [label="Conv2d(384, 384, kernel_size=(3, 3), stride=(1, 1), padding=(1, 1), groups=384, bias=False)"]
	"head.23.cv3.0.0.0.bn" [label="BatchNorm2d(384, eps=0.001, momentum=0.03, affine=True, track_running_stats=True)"]
	"head.23.cv3.0.0.0.act" [label="SiLU(inplace=True)"]
	"head.23.cv3.0.0.1" [label="Conv(
  (conv): Conv2d(384, 384, kernel_size=(1, 1), stride=(1, 1), bias=False)
  (bn): BatchNorm2d(384, eps=0.001, momentum=0.03, affine=True, track_running_stats=True)
  (act): SiLU(inplace=True)
)"]
	"head.23.cv3.0.0.1.conv" [label="Conv2d(384, 384, kernel_size=(1, 1), stride=(1, 1), bias=False)"]
	"head.23.cv3.0.0.1.bn" [label="BatchNorm2d(384, eps=0.001, momentum=0.03, affine=True, track_running_stats=True)"]
	"head.23.cv3.0.0.1.act" [label="SiLU(inplace=True)"]
	"head.23.cv3.0.1" [label="Sequential(
  (0): DWConv(
    (conv): Conv2d(384, 384, kernel_size=(3, 3), stride=(1, 1), padding=(1, 1), groups=384, bias=False)
    (bn): BatchNorm2d(384, eps=0.001, momentum=0.03, affine=True, track_running_stats=True)
    (act): SiLU(inplace=True)
  )
  (1): Conv(
    (conv): Conv2d(384, 384, kernel_size=(1, 1), stride=(1, 1), bias=False)
    (bn): BatchNorm2d(384, eps=0.001, momentum=0.03, affine=True, track_running_stats=True)
    (act): SiLU(inplace=True)
  )
)"]
	"head.23.cv3.0.1.0" [label="DWConv(
  (conv): Conv2d(384, 384, kernel_size=(3, 3), stride=(1, 1), padding=(1, 1), groups=384, bias=False)
  (bn): BatchNorm2d(384, eps=0.001, momentum=0.03, affine=True, track_running_stats=True)
  (act): SiLU(inplace=True)
)"]
	"head.23.cv3.0.1.0.conv" [label="Conv2d(384, 384, kernel_size=(3, 3), stride=(1, 1), padding=(1, 1), groups=384, bias=False)"]
	"head.23.cv3.0.1.0.bn" [label="BatchNorm2d(384, eps=0.001, momentum=0.03, affine=True, track_running_stats=True)"]
	"head.23.cv3.0.1.0.act" [label="SiLU(inplace=True)"]
	"head.23.cv3.0.1.1" [label="Conv(
  (conv): Conv2d(384, 384, kernel_size=(1, 1), stride=(1, 1), bias=False)
  (bn): BatchNorm2d(384, eps=0.001, momentum=0.03, affine=True, track_running_stats=True)
  (act): SiLU(inplace=True)
)"]
	"head.23.cv3.0.1.1.conv" [label="Conv2d(384, 384, kernel_size=(1, 1), stride=(1, 1), bias=False)"]
	"head.23.cv3.0.1.1.bn" [label="BatchNorm2d(384, eps=0.001, momentum=0.03, affine=True, track_running_stats=True)"]
	"head.23.cv3.0.1.1.act" [label="SiLU(inplace=True)"]
	"head.23.cv3.0.2" [label="Conv2d(384, 80, kernel_size=(1, 1), stride=(1, 1))"]
	"head.23.cv3.1" [label="Sequential(
  (0): Sequential(
    (0): DWConv(
      (conv): Conv2d(768, 768, kernel_size=(3, 3), stride=(1, 1), padding=(1, 1), groups=768, bias=False)
      (bn): BatchNorm2d(768, eps=0.001, momentum=0.03, affine=True, track_running_stats=True)
      (act): SiLU(inplace=True)
    )
    (1): Conv(
      (conv): Conv2d(768, 384, kernel_size=(1, 1), stride=(1, 1), bias=False)
      (bn): BatchNorm2d(384, eps=0.001, momentum=0.03, affine=True, track_running_stats=True)
      (act): SiLU(inplace=True)
    )
  )
  (1): Sequential(
    (0): DWConv(
      (conv): Conv2d(384, 384, kernel_size=(3, 3), stride=(1, 1), padding=(1, 1), groups=384, bias=False)
      (bn): BatchNorm2d(384, eps=0.001, momentum=0.03, affine=True, track_running_stats=True)
      (act): SiLU(inplace=True)
    )
    (1): Conv(
      (conv): Conv2d(384, 384, kernel_size=(1, 1), stride=(1, 1), bias=False)
      (bn): BatchNorm2d(384, eps=0.001, momentum=0.03, affine=True, track_running_stats=True)
      (act): SiLU(inplace=True)
    )
  )
  (2): Conv2d(384, 80, kernel_size=(1, 1), stride=(1, 1))
)"]
	"head.23.cv3.1.0" [label="Sequential(
  (0): DWConv(
    (conv): Conv2d(768, 768, kernel_size=(3, 3), stride=(1, 1), padding=(1, 1), groups=768, bias=False)
    (bn): BatchNorm2d(768, eps=0.001, momentum=0.03, affine=True, track_running_stats=True)
    (act): SiLU(inplace=True)
  )
  (1): Conv(
    (conv): Conv2d(768, 384, kernel_size=(1, 1), stride=(1, 1), bias=False)
    (bn): BatchNorm2d(384, eps=0.001, momentum=0.03, affine=True, track_running_stats=True)
    (act): SiLU(inplace=True)
  )
)"]
	"head.23.cv3.1.0.0" [label="DWConv(
  (conv): Conv2d(768, 768, kernel_size=(3, 3), stride=(1, 1), padding=(1, 1), groups=768, bias=False)
  (bn): BatchNorm2d(768, eps=0.001, momentum=0.03, affine=True, track_running_stats=True)
  (act): SiLU(inplace=True)
)"]
	"head.23.cv3.1.0.0.conv" [label="Conv2d(768, 768, kernel_size=(3, 3), stride=(1, 1), padding=(1, 1), groups=768, bias=False)"]
	"head.23.cv3.1.0.0.bn" [label="BatchNorm2d(768, eps=0.001, momentum=0.03, affine=True, track_running_stats=True)"]
	"head.23.cv3.1.0.0.act" [label="SiLU(inplace=True)"]
	"head.23.cv3.1.0.1" [label="Conv(
  (conv): Conv2d(768, 384, kernel_size=(1, 1), stride=(1, 1), bias=False)
  (bn): BatchNorm2d(384, eps=0.001, momentum=0.03, affine=True, track_running_stats=True)
  (act): SiLU(inplace=True)
)"]
	"head.23.cv3.1.0.1.conv" [label="Conv2d(768, 384, kernel_size=(1, 1), stride=(1, 1), bias=False)"]
	"head.23.cv3.1.0.1.bn" [label="BatchNorm2d(384, eps=0.001, momentum=0.03, affine=True, track_running_stats=True)"]
	"head.23.cv3.1.0.1.act" [label="SiLU(inplace=True)"]
	"head.23.cv3.1.1" [label="Sequential(
  (0): DWConv(
    (conv): Conv2d(384, 384, kernel_size=(3, 3), stride=(1, 1), padding=(1, 1), groups=384, bias=False)
    (bn): BatchNorm2d(384, eps=0.001, momentum=0.03, affine=True, track_running_stats=True)
    (act): SiLU(inplace=True)
  )
  (1): Conv(
    (conv): Conv2d(384, 384, kernel_size=(1, 1), stride=(1, 1), bias=False)
    (bn): BatchNorm2d(384, eps=0.001, momentum=0.03, affine=True, track_running_stats=True)
    (act): SiLU(inplace=True)
  )
)"]
	"head.23.cv3.1.1.0" [label="DWConv(
  (conv): Conv2d(384, 384, kernel_size=(3, 3), stride=(1, 1), padding=(1, 1), groups=384, bias=False)
  (bn): BatchNorm2d(384, eps=0.001, momentum=0.03, affine=True, track_running_stats=True)
  (act): SiLU(inplace=True)
)"]
	"head.23.cv3.1.1.0.conv" [label="Conv2d(384, 384, kernel_size=(3, 3), stride=(1, 1), padding=(1, 1), groups=384, bias=False)"]
	"head.23.cv3.1.1.0.bn" [label="BatchNorm2d(384, eps=0.001, momentum=0.03, affine=True, track_running_stats=True)"]
	"head.23.cv3.1.1.0.act" [label="SiLU(inplace=True)"]
	"head.23.cv3.1.1.1" [label="Conv(
  (conv): Conv2d(384, 384, kernel_size=(1, 1), stride=(1, 1), bias=False)
  (bn): BatchNorm2d(384, eps=0.001, momentum=0.03, affine=True, track_running_stats=True)
  (act): SiLU(inplace=True)
)"]
	"head.23.cv3.1.1.1.conv" [label="Conv2d(384, 384, kernel_size=(1, 1), stride=(1, 1), bias=False)"]
	"head.23.cv3.1.1.1.bn" [label="BatchNorm2d(384, eps=0.001, momentum=0.03, affine=True, track_running_stats=True)"]
	"head.23.cv3.1.1.1.act" [label="SiLU(inplace=True)"]
	"head.23.cv3.1.2" [label="Conv2d(384, 80, kernel_size=(1, 1), stride=(1, 1))"]
	"head.23.cv3.2" [label="Sequential(
  (0): Sequential(
    (0): DWConv(
      (conv): Conv2d(768, 768, kernel_size=(3, 3), stride=(1, 1), padding=(1, 1), groups=768, bias=False)
      (bn): BatchNorm2d(768, eps=0.001, momentum=0.03, affine=True, track_running_stats=True)
      (act): SiLU(inplace=True)
    )
    (1): Conv(
      (conv): Conv2d(768, 384, kernel_size=(1, 1), stride=(1, 1), bias=False)
      (bn): BatchNorm2d(384, eps=0.001, momentum=0.03, affine=True, track_running_stats=True)
      (act): SiLU(inplace=True)
    )
  )
  (1): Sequential(
    (0): DWConv(
      (conv): Conv2d(384, 384, kernel_size=(3, 3), stride=(1, 1), padding=(1, 1), groups=384, bias=False)
      (bn): BatchNorm2d(384, eps=0.001, momentum=0.03, affine=True, track_running_stats=True)
      (act): SiLU(inplace=True)
    )
    (1): Conv(
      (conv): Conv2d(384, 384, kernel_size=(1, 1), stride=(1, 1), bias=False)
      (bn): BatchNorm2d(384, eps=0.001, momentum=0.03, affine=True, track_running_stats=True)
      (act): SiLU(inplace=True)
    )
  )
  (2): Conv2d(384, 80, kernel_size=(1, 1), stride=(1, 1))
)"]
	"head.23.cv3.2.0" [label="Sequential(
  (0): DWConv(
    (conv): Conv2d(768, 768, kernel_size=(3, 3), stride=(1, 1), padding=(1, 1), groups=768, bias=False)
    (bn): BatchNorm2d(768, eps=0.001, momentum=0.03, affine=True, track_running_stats=True)
    (act): SiLU(inplace=True)
  )
  (1): Conv(
    (conv): Conv2d(768, 384, kernel_size=(1, 1), stride=(1, 1), bias=False)
    (bn): BatchNorm2d(384, eps=0.001, momentum=0.03, affine=True, track_running_stats=True)
    (act): SiLU(inplace=True)
  )
)"]
	"head.23.cv3.2.0.0" [label="DWConv(
  (conv): Conv2d(768, 768, kernel_size=(3, 3), stride=(1, 1), padding=(1, 1), groups=768, bias=False)
  (bn): BatchNorm2d(768, eps=0.001, momentum=0.03, affine=True, track_running_stats=True)
  (act): SiLU(inplace=True)
)"]
	"head.23.cv3.2.0.0.conv" [label="Conv2d(768, 768, kernel_size=(3, 3), stride=(1, 1), padding=(1, 1), groups=768, bias=False)"]
	"head.23.cv3.2.0.0.bn" [label="BatchNorm2d(768, eps=0.001, momentum=0.03, affine=True, track_running_stats=True)"]
	"head.23.cv3.2.0.0.act" [label="SiLU(inplace=True)"]
	"head.23.cv3.2.0.1" [label="Conv(
  (conv): Conv2d(768, 384, kernel_size=(1, 1), stride=(1, 1), bias=False)
  (bn): BatchNorm2d(384, eps=0.001, momentum=0.03, affine=True, track_running_stats=True)
  (act): SiLU(inplace=True)
)"]
	"head.23.cv3.2.0.1.conv" [label="Conv2d(768, 384, kernel_size=(1, 1), stride=(1, 1), bias=False)"]
	"head.23.cv3.2.0.1.bn" [label="BatchNorm2d(384, eps=0.001, momentum=0.03, affine=True, track_running_stats=True)"]
	"head.23.cv3.2.0.1.act" [label="SiLU(inplace=True)"]
	"head.23.cv3.2.1" [label="Sequential(
  (0): DWConv(
    (conv): Conv2d(384, 384, kernel_size=(3, 3), stride=(1, 1), padding=(1, 1), groups=384, bias=False)
    (bn): BatchNorm2d(384, eps=0.001, momentum=0.03, affine=True, track_running_stats=True)
    (act): SiLU(inplace=True)
  )
  (1): Conv(
    (conv): Conv2d(384, 384, kernel_size=(1, 1), stride=(1, 1), bias=False)
    (bn): BatchNorm2d(384, eps=0.001, momentum=0.03, affine=True, track_running_stats=True)
    (act): SiLU(inplace=True)
  )
)"]
	"head.23.cv3.2.1.0" [label="DWConv(
  (conv): Conv2d(384, 384, kernel_size=(3, 3), stride=(1, 1), padding=(1, 1), groups=384, bias=False)
  (bn): BatchNorm2d(384, eps=0.001, momentum=0.03, affine=True, track_running_stats=True)
  (act): SiLU(inplace=True)
)"]
	"head.23.cv3.2.1.0.conv" [label="Conv2d(384, 384, kernel_size=(3, 3), stride=(1, 1), padding=(1, 1), groups=384, bias=False)"]
	"head.23.cv3.2.1.0.bn" [label="BatchNorm2d(384, eps=0.001, momentum=0.03, affine=True, track_running_stats=True)"]
	"head.23.cv3.2.1.0.act" [label="SiLU(inplace=True)"]
	"head.23.cv3.2.1.1" [label="Conv(
  (conv): Conv2d(384, 384, kernel_size=(1, 1), stride=(1, 1), bias=False)
  (bn): BatchNorm2d(384, eps=0.001, momentum=0.03, affine=True, track_running_stats=True)
  (act): SiLU(inplace=True)
)"]
	"head.23.cv3.2.1.1.conv" [label="Conv2d(384, 384, kernel_size=(1, 1), stride=(1, 1), bias=False)"]
	"head.23.cv3.2.1.1.bn" [label="BatchNorm2d(384, eps=0.001, momentum=0.03, affine=True, track_running_stats=True)"]
	"head.23.cv3.2.1.1.act" [label="SiLU(inplace=True)"]
	"head.23.cv3.2.2" [label="Conv2d(384, 80, kernel_size=(1, 1), stride=(1, 1))"]
	"head.23.dfl" [label="DFL(
  (conv): Conv2d(16, 1, kernel_size=(1, 1), stride=(1, 1), bias=False)
)"]
	"head.23.dfl.conv" [label="Conv2d(16, 1, kernel_size=(1, 1), stride=(1, 1), bias=False)"]
	"head.23.proto" [label="Proto(
  (cv1): Conv(
    (conv): Conv2d(384, 384, kernel_size=(3, 3), stride=(1, 1), padding=(1, 1), bias=False)
    (bn): BatchNorm2d(384, eps=0.001, momentum=0.03, affine=True, track_running_stats=True)
    (act): SiLU(inplace=True)
  )
  (upsample): ConvTranspose2d(384, 384, kernel_size=(2, 2), stride=(2, 2))
  (cv2): Conv(
    (conv): Conv2d(384, 384, kernel_size=(3, 3), stride=(1, 1), padding=(1, 1), bias=False)
    (bn): BatchNorm2d(384, eps=0.001, momentum=0.03, affine=True, track_running_stats=True)
    (act): SiLU(inplace=True)
  )
  (cv3): Conv(
    (conv): Conv2d(384, 32, kernel_size=(1, 1), stride=(1, 1), bias=False)
    (bn): BatchNorm2d(32, eps=0.001, momentum=0.03, affine=True, track_running_stats=True)
    (act): SiLU(inplace=True)
  )
)"]
	"head.23.proto.cv1" [label="Conv(
  (conv): Conv2d(384, 384, kernel_size=(3, 3), stride=(1, 1), padding=(1, 1), bias=False)
  (bn): BatchNorm2d(384, eps=0.001, momentum=0.03, affine=True, track_running_stats=True)
  (act): SiLU(inplace=True)
)"]
	"head.23.proto.cv1.conv" [label="Conv2d(384, 384, kernel_size=(3, 3), stride=(1, 1), padding=(1, 1), bias=False)"]
	"head.23.proto.cv1.bn" [label="BatchNorm2d(384, eps=0.001, momentum=0.03, affine=True, track_running_stats=True)"]
	"head.23.proto.cv1.act" [label="SiLU(inplace=True)"]
	"head.23.proto.upsample" [label="ConvTranspose2d(384, 384, kernel_size=(2, 2), stride=(2, 2))"]
	"head.23.proto.cv2" [label="Conv(
  (conv): Conv2d(384, 384, kernel_size=(3, 3), stride=(1, 1), padding=(1, 1), bias=False)
  (bn): BatchNorm2d(384, eps=0.001, momentum=0.03, affine=True, track_running_stats=True)
  (act): SiLU(inplace=True)
)"]
	"head.23.proto.cv2.conv" [label="Conv2d(384, 384, kernel_size=(3, 3), stride=(1, 1), padding=(1, 1), bias=False)"]
	"head.23.proto.cv2.bn" [label="BatchNorm2d(384, eps=0.001, momentum=0.03, affine=True, track_running_stats=True)"]
	"head.23.proto.cv2.act" [label="SiLU(inplace=True)"]
	"head.23.proto.cv3" [label="Conv(
  (conv): Conv2d(384, 32, kernel_size=(1, 1), stride=(1, 1), bias=False)
  (bn): BatchNorm2d(32, eps=0.001, momentum=0.03, affine=True, track_running_stats=True)
  (act): SiLU(inplace=True)
)"]
	"head.23.proto.cv3.conv" [label="Conv2d(384, 32, kernel_size=(1, 1), stride=(1, 1), bias=False)"]
	"head.23.proto.cv3.bn" [label="BatchNorm2d(32, eps=0.001, momentum=0.03, affine=True, track_running_stats=True)"]
	"head.23.proto.cv3.act" [label="SiLU(inplace=True)"]
	"head.23.cv4" [label="ModuleList(
  (0): Sequential(
    (0): Conv(
      (conv): Conv2d(384, 96, kernel_size=(3, 3), stride=(1, 1), padding=(1, 1), bias=False)
      (bn): BatchNorm2d(96, eps=0.001, momentum=0.03, affine=True, track_running_stats=True)
      (act): SiLU(inplace=True)
    )
    (1): Conv(
      (conv): Conv2d(96, 96, kernel_size=(3, 3), stride=(1, 1), padding=(1, 1), bias=False)
      (bn): BatchNorm2d(96, eps=0.001, momentum=0.03, affine=True, track_running_stats=True)
      (act): SiLU(inplace=True)
    )
    (2): Conv2d(96, 32, kernel_size=(1, 1), stride=(1, 1))
  )
  (1-2): 2 x Sequential(
    (0): Conv(
      (conv): Conv2d(768, 96, kernel_size=(3, 3), stride=(1, 1), padding=(1, 1), bias=False)
      (bn): BatchNorm2d(96, eps=0.001, momentum=0.03, affine=True, track_running_stats=True)
      (act): SiLU(inplace=True)
    )
    (1): Conv(
      (conv): Conv2d(96, 96, kernel_size=(3, 3), stride=(1, 1), padding=(1, 1), bias=False)
      (bn): BatchNorm2d(96, eps=0.001, momentum=0.03, affine=True, track_running_stats=True)
      (act): SiLU(inplace=True)
    )
    (2): Conv2d(96, 32, kernel_size=(1, 1), stride=(1, 1))
  )
)"]
	"head.23.cv4.0" [label="Sequential(
  (0): Conv(
    (conv): Conv2d(384, 96, kernel_size=(3, 3), stride=(1, 1), padding=(1, 1), bias=False)
    (bn): BatchNorm2d(96, eps=0.001, momentum=0.03, affine=True, track_running_stats=True)
    (act): SiLU(inplace=True)
  )
  (1): Conv(
    (conv): Conv2d(96, 96, kernel_size=(3, 3), stride=(1, 1), padding=(1, 1), bias=False)
    (bn): BatchNorm2d(96, eps=0.001, momentum=0.03, affine=True, track_running_stats=True)
    (act): SiLU(inplace=True)
  )
  (2): Conv2d(96, 32, kernel_size=(1, 1), stride=(1, 1))
)"]
	"head.23.cv4.0.0" [label="Conv(
  (conv): Conv2d(384, 96, kernel_size=(3, 3), stride=(1, 1), padding=(1, 1), bias=False)
  (bn): BatchNorm2d(96, eps=0.001, momentum=0.03, affine=True, track_running_stats=True)
  (act): SiLU(inplace=True)
)"]
	"head.23.cv4.0.0.conv" [label="Conv2d(384, 96, kernel_size=(3, 3), stride=(1, 1), padding=(1, 1), bias=False)"]
	"head.23.cv4.0.0.bn" [label="BatchNorm2d(96, eps=0.001, momentum=0.03, affine=True, track_running_stats=True)"]
	"head.23.cv4.0.0.act" [label="SiLU(inplace=True)"]
	"head.23.cv4.0.1" [label="Conv(
  (conv): Conv2d(96, 96, kernel_size=(3, 3), stride=(1, 1), padding=(1, 1), bias=False)
  (bn): BatchNorm2d(96, eps=0.001, momentum=0.03, affine=True, track_running_stats=True)
  (act): SiLU(inplace=True)
)"]
	"head.23.cv4.0.1.conv" [label="Conv2d(96, 96, kernel_size=(3, 3), stride=(1, 1), padding=(1, 1), bias=False)"]
	"head.23.cv4.0.1.bn" [label="BatchNorm2d(96, eps=0.001, momentum=0.03, affine=True, track_running_stats=True)"]
	"head.23.cv4.0.1.act" [label="SiLU(inplace=True)"]
	"head.23.cv4.0.2" [label="Conv2d(96, 32, kernel_size=(1, 1), stride=(1, 1))"]
	"head.23.cv4.1" [label="Sequential(
  (0): Conv(
    (conv): Conv2d(768, 96, kernel_size=(3, 3), stride=(1, 1), padding=(1, 1), bias=False)
    (bn): BatchNorm2d(96, eps=0.001, momentum=0.03, affine=True, track_running_stats=True)
    (act): SiLU(inplace=True)
  )
  (1): Conv(
    (conv): Conv2d(96, 96, kernel_size=(3, 3), stride=(1, 1), padding=(1, 1), bias=False)
    (bn): BatchNorm2d(96, eps=0.001, momentum=0.03, affine=True, track_running_stats=True)
    (act): SiLU(inplace=True)
  )
  (2): Conv2d(96, 32, kernel_size=(1, 1), stride=(1, 1))
)"]
	"head.23.cv4.1.0" [label="Conv(
  (conv): Conv2d(768, 96, kernel_size=(3, 3), stride=(1, 1), padding=(1, 1), bias=False)
  (bn): BatchNorm2d(96, eps=0.001, momentum=0.03, affine=True, track_running_stats=True)
  (act): SiLU(inplace=True)
)"]
	"head.23.cv4.1.0.conv" [label="Conv2d(768, 96, kernel_size=(3, 3), stride=(1, 1), padding=(1, 1), bias=False)"]
	"head.23.cv4.1.0.bn" [label="BatchNorm2d(96, eps=0.001, momentum=0.03, affine=True, track_running_stats=True)"]
	"head.23.cv4.1.0.act" [label="SiLU(inplace=True)"]
	"head.23.cv4.1.1" [label="Conv(
  (conv): Conv2d(96, 96, kernel_size=(3, 3), stride=(1, 1), padding=(1, 1), bias=False)
  (bn): BatchNorm2d(96, eps=0.001, momentum=0.03, affine=True, track_running_stats=True)
  (act): SiLU(inplace=True)
)"]
	"head.23.cv4.1.1.conv" [label="Conv2d(96, 96, kernel_size=(3, 3), stride=(1, 1), padding=(1, 1), bias=False)"]
	"head.23.cv4.1.1.bn" [label="BatchNorm2d(96, eps=0.001, momentum=0.03, affine=True, track_running_stats=True)"]
	"head.23.cv4.1.1.act" [label="SiLU(inplace=True)"]
	"head.23.cv4.1.2" [label="Conv2d(96, 32, kernel_size=(1, 1), stride=(1, 1))"]
	"head.23.cv4.2" [label="Sequential(
  (0): Conv(
    (conv): Conv2d(768, 96, kernel_size=(3, 3), stride=(1, 1), padding=(1, 1), bias=False)
    (bn): BatchNorm2d(96, eps=0.001, momentum=0.03, affine=True, track_running_stats=True)
    (act): SiLU(inplace=True)
  )
  (1): Conv(
    (conv): Conv2d(96, 96, kernel_size=(3, 3), stride=(1, 1), padding=(1, 1), bias=False)
    (bn): BatchNorm2d(96, eps=0.001, momentum=0.03, affine=True, track_running_stats=True)
    (act): SiLU(inplace=True)
  )
  (2): Conv2d(96, 32, kernel_size=(1, 1), stride=(1, 1))
)"]
	"head.23.cv4.2.0" [label="Conv(
  (conv): Conv2d(768, 96, kernel_size=(3, 3), stride=(1, 1), padding=(1, 1), bias=False)
  (bn): BatchNorm2d(96, eps=0.001, momentum=0.03, affine=True, track_running_stats=True)
  (act): SiLU(inplace=True)
)"]
	"head.23.cv4.2.0.conv" [label="Conv2d(768, 96, kernel_size=(3, 3), stride=(1, 1), padding=(1, 1), bias=False)"]
	"head.23.cv4.2.0.bn" [label="BatchNorm2d(96, eps=0.001, momentum=0.03, affine=True, track_running_stats=True)"]
	"head.23.cv4.2.0.act" [label="SiLU(inplace=True)"]
	"head.23.cv4.2.1" [label="Conv(
  (conv): Conv2d(96, 96, kernel_size=(3, 3), stride=(1, 1), padding=(1, 1), bias=False)
  (bn): BatchNorm2d(96, eps=0.001, momentum=0.03, affine=True, track_running_stats=True)
  (act): SiLU(inplace=True)
)"]
	"head.23.cv4.2.1.conv" [label="Conv2d(96, 96, kernel_size=(3, 3), stride=(1, 1), padding=(1, 1), bias=False)"]
	"head.23.cv4.2.1.bn" [label="BatchNorm2d(96, eps=0.001, momentum=0.03, affine=True, track_running_stats=True)"]
	"head.23.cv4.2.1.act" [label="SiLU(inplace=True)"]
	"head.23.cv4.2.2" [label="Conv2d(96, 32, kernel_size=(1, 1), stride=(1, 1))"]
	fusion_p3 [label="CatFusion(
  (conv): Conv2d(512, 256, kernel_size=(1, 1), stride=(1, 1))
)"]
	"fusion_p3.conv" [label="Conv2d(512, 256, kernel_size=(1, 1), stride=(1, 1))"]
	fusion_p4 [label="CatFusion(
  (conv): Conv2d(512, 256, kernel_size=(1, 1), stride=(1, 1))
)"]
	"fusion_p4.conv" [label="Conv2d(512, 256, kernel_size=(1, 1), stride=(1, 1))"]
	fusion_p5 [label="CatFusion(
  (conv): Conv2d(512, 256, kernel_size=(1, 1), stride=(1, 1))
)"]
	"fusion_p5.conv" [label="Conv2d(512, 256, kernel_size=(1, 1), stride=(1, 1))"]
	"backbone_b.0" -> "backbone_b.1"
	"backbone_b.1" -> "backbone_b.2"
	"backbone_b.2" -> "backbone_b.3"
	"backbone_b.3" -> "backbone_b.4"
	"backbone_b.4" -> "backbone_b.5"
	"backbone_b.5" -> "backbone_b.6"
	"backbone_b.6" -> "backbone_b.7"
	"backbone_b.7" -> "backbone_b.8"
…
